best_cnn2d_model.pth (torch, 383852 bytes, 8 tensors)

conv_layers.0.weight f4 [32, 3, 3, 3]
0	0xb98b8b89	-0.00026616108
1	0xbde8cbb5	-0.11366979
2	0xbd2993b3	-0.041400623
3	0x3d4d434b	0.050113004
4	0xbeb22bcb	-0.34799036
5	0x3b93ad5c	0.00450675
6	0xbe6121c8	-0.21985543
7	0xbe9e130a	-0.308739
8	0xbe21c055	-0.15796025
9	0xbd137a79	-0.03600547
10	0xbd9de797	-0.07710188
11	0x3c900963	0.017582601
12	0xbe928591	-0.28617528
13	0xbe0247be	-0.1272268
14	0xbe11e1ea	-0.14246336
15	0xbe64c748	-0.22341645
16	0xbe23d227	-0.15998136
17	0xbe075938	-0.13217628
18	0x3da6ae50	0.08138716
19	0xbe06e85f	-0.1317458
20	0xbda98365	-0.08277015
21	0x3c08f320	0.008358747
22	0x3e18bf8b	0.14916818
23	0xbdf6b90c	-0.12047014
24	0xbd33c635	-0.043890197
25	0x3e12526c	0.14289254
26	0x3d00ed66	0.0314764
27	0xbcac0e70	-0.021002978
28	0x3e416b93	0.18888693
29	0x3d448b09	0.047984157
30	0x3eb0fae6	0.3456642
31	0x3e9392bf	0.28822896
32	0x3e43f51c	0.1913647
33	0xbecba9b6	-0.39777917
34	0xbe98b426	-0.29824942
35	0xbe5033e4	-0.20332295
36	0x3e925435	0.2857987
37	0x3e637092	0.22210911
38	0x3e66726c	0.22504586
39	0x3e37695d	0.17911287
40	0x3e4eef0f	0.20208381
41	0x3da16428	0.078804314
42	0xbe3b5ff5	-0.18298323
43	0xbe99a304	-0.30007184
44	0xbeb7b280	-0.35878372
45	0xbd1623a4	-0.036655083
46	0xbd8ca686	-0.06867699
47	0x3d95d4e2	0.07315995
48	0x3e33009e	0.17480704
49	0x3e63581e	0.22201583
50	0x3ea012f7	0.3126447
51	0xbee6ba8f	-0.45064208
52	0xbed407ee	-0.414123
53	0xbeb13ffc	-0.3461913
54	0xbeb56f40	-0.3543644
55	0xbe336f03	-0.17522816
56	0xbddf95c1	-0.10917235
57	0x3dbc823b	0.09204527
58	0xbe6e1970	-0.23251891
59	0x3e003119	0.1251873
60	0xbde38dfd	-0.111110665
61	0x3dc0ff48	0.09423691
62	0x3daaaeb9	0.08334107
63	0xbede7a35	-0.43452612
64	0xbec3c266	-0.38234252
65	0xbd6ff4db	-0.05858312
66	0x3d85145e	0.06498025
67	0x3d8af678	0.067852914
68	0x3e8174e8	0.25284505
69	0x3d92d508	0.07169539
70	0xbe6bf40c	-0.23042315
71	0x3d3af31e	0.04564201
72	0xbea4fa77	-0.3222234
73	0xbe409cda	-0.18809834
74	0xbda1ee01	-0.07906724
75	0x3e8116c1	0.25212672
76	0xbc7f7100	-0.015590906
77	0x3e8e59bc	0.27802837
78	0xbd46cdf1	-0.048536245
79	0xbd94c54e	-0.072641954
80	0x3eb6f4f4	0.3573376
81	0xbe5c2dc7	-0.21501838
82	0xbe738d6c	-0.23784417
83	0xbe892583	-0.26786432
84	0xbe1c6f99	-0.15276946
85	0xbde2276f	-0.110426776
86	0xbe3b4748	-0.1828891
87	0xbdbce666	-0.092236325
88	0xbe7cf93c	-0.2470445
89	0xbe04a788	-0.12954533
90	0xbe013647	-0.12618361
91	0x3e12fffa	0.1435546
92	0xbe101383	-0.14069943
93	0xbc7d5a86	-0.015463477
94	0xbe313506	-0.17305383
95	0xbd95430f	-0.07288181
96	0xbdf6ebde	-0.12056707
97	0x3e123752	0.14278916
98	0xbe44907b	-0.1919574
99	0x3ec2401f	0.37939546
100	0x3da12e94	0.07870212
101	0x3e19aed5	0.150081
102	0x3e853293	0.26015148
103	0x3e075bca	0.13218608
104	0x3b2d07af	0.0026402285
105	0x3e8d5179	0.2760122
106	0x3eac7e79	0.3369024
107	0x3e32462e	0.17409584
108	0xbd69c28a	-0.057070293
109	0x3e1f6876	0.15567192
110	0x3e870e02	0.26377875
111	0x3e6cbb94	0.2311843
112	0x3e7c82af	0.24659227
113	0xbc0c26f5	-0.00855421
114	0x3e83a28e	0.25709957
115	0x3e2923cd	0.16517563
116	0x3daa9d2e	0.08330761
117	0xbe8531eb	-0.26014647
118	0xbe907688	-0.28215432
119	0x3b5219de	0.0032058875
120	0xbea1abde	-0.31576437
121	0xbd341c94	-0.043972567
122	0xbd370c09	-0.044689212
123	0xbe3367ba	-0.17520037
124	0xbdddc7d8	-0.10829133
125	0xbdc56c46	-0.09639792
126	0x3d0c0ec5	0.034193773
127	0xbe33bafb	-0.17551796
128	0xbdbfe2a9	-0.09369404
129	0xbe7b972e	-0.24569389
130	0xbd088a50	-0.03333503
131	0x3c37bad8	0.011213981
132	0xbe27c1e0	-0.16382551
133	0xbe25137b	-0.16120712
134	0xbe7313a7	-0.23737966
135	0xbe332452	-0.17494324
136	0xbd190721	-0.037360314
137	0x3e3e9962	0.18613198
138	0xbe464eea	-0.19366041
139	0x3d427227	0.047472145
140	0x3e0f16f9	0.13973607
141	0xbea483aa	-0.32131702
142	0xba3d4bf4	-0.0007221096
143	0xbd1a9438	-0.03773901
144	0xbddb19aa	-0.106982544
145	0x3e4d7596	0.20064387
146	0x3e72d4ec	0.23714036
147	0xbe82451e	-0.25443357
148	0xbe134012	-0.1437991
149	0x3e82d73f	0.25554845
150	0xbe6f8b7c	-0.23393053
151	0x3ccd01a8	0.025025204
152	0x3e3211c8	0.17389596
153	0x3a9bc8b3	0.0011885375
154	0x3daeda87	0.085377745
155	0x3e2eac6e	0.17057964
156	0xbd823d3d	-0.063593365
157	0xbe29dec5	-0.16588886
158	0x3e7f8d8a	0.24956337
159	0xbe67120f	-0.22565483
160	0x3d3972f2	0.045275636
161	0x3e7fdfb0	0.24987674
162	0x3d5f88cd	0.054573823
163	0xbdd2fa67	-0.10301667
164	0xbe0821cd	-0.13294144
165	0xbb05131a	-0.0020305575
166	0xbeb4e753	-0.35332736
167	0x3d0f80b2	0.035034843
168	0xbe7b148a	-0.24519554
169	0xbedc7210	-0.43055773
170	0x3d63b07a	0.055588223
171	0x3de32b87	0.110922866
172	0xbddd7494	-0.10813251
173	0x3dc7944c	0.09745082
174	0x3d928891	0.07154954
175	0xbe91f3c8	-0.28506303
176	0xbd578d28	-0.05262485
177	0xbde3b6d0	-0.11118853
178	0xbecaaba2	-0.3958407
179	0x3e238420	0.1596837
180	0x3e39a206	0.18128213
181	0xbe1e6141	-0.15466787
182	0x3e8d75d5	0.2762896
183	0x3e009cec	0.12559861
184	0x3d0bf58d	0.034169722
185	0x3d599fcc	0.05313091
186	0x3d9b429b	0.07581063
187	0xbe87f249	-0.26552036
188	0xbc5b1f1f	-0.013374119
189	0xbf68492f	-0.9073667
190	0xbf5ee0bc	-0.8706167
191	0xbf1dd3ff	-0.61651605
192	0xbf597568	-0.8494477
193	0xbf4677fc	-0.7752683
194	0xbf0194eb	-0.50617856
195	0xbef3ff98	-0.4765594
196	0xbe843d0f	-0.25827834
197	0xbe84e37c	-0.25954807
198	0xbf47383f	-0.778202
199	0xbf1a8367	-0.60356754
200	0xbea0f646	-0.31437892
201	0xbf40bc1e	-0.75287044
202	0xbf16d832	-0.5892364
203	0xbe76bc8f	-0.24095367
204	0xbe9875da	-0.29777414
205	0xbe0a2c9b	-0.13493578
206	0xbe28bb4d	-0.164777
207	0xbe7a704b	-0.24456899
208	0xbe08bc8a	-0.13353172
209	0x3dbc8790	0.09205544
210	0xbd8ca658	-0.06867665
211	0x3ca100ea	0.019653756
212	0x3df48d96	0.11941068
213	0x3ea29a4b	0.3175834
214	0x3ef5c86a	0.48004466
215	0x3f19b8a2	0.6004735
216	0x3e79121f	0.24323319
217	0x3daabab2	0.083363906
218	0xbe84f91a	-0.259713
219	0x3d87eae9	0.066366024
220	0xbe5c37f2	-0.21505716
221	0xbe3cbf79	-0.18432416
222	0x3d37ee78	0.044905156
223	0x3ba9a32a	0.0051769214
224	0xbeadfeb6	-0.33983392
225	0x3e602022	0.21887258
226	0xbe54f1a2	-0.207953
227	0xbded75b9	-0.115947194
228	0x3e52c740	0.2058382
229	0xbe3333e9	-0.17500271
230	0xbed09bdf	-0.4074392
231	0x3d87980a	0.06620796
232	0xbe693192	-0.22772816
233	0xbeb2af21	-0.34899238
234	0x3e0b5f49	0.13610567
235	0xbde6045e	-0.11231302
236	0xbee4b92a	-0.4467252
237	0x3e388506	0.18019494
238	0xbe7d50d9	-0.24737872
239	0xbef52918	-0.47882915
240	0x3deeffd8	0.11669892
241	0xbe05e771	-0.13076569
242	0xbf0ec3fe	-0.5576781
243	0xbe4bb855	-0.19894536
244	0xbd76a451	-0.060215298
245	0xbe15c75d	-0.14626832
246	0xba93ecf7	-0.0011285831
247	0xbe8c3add	-0.2738866
248	0xbea6ea12	-0.32600456
249	0xbd2dcd93	-0.04243238
250	0xbe7ed7dd	-0.24887033
251	0xbd027775	-0.031852204
252	0xbbd2c9b1	-0.006432735
253	0x3ddc871f	0.1076796
254	0xbda8df42	-0.08245708
255	0x3c9c744d	0.019098425

conv_layers.0.bias f4 [32]
0	0x3e61ee4c	0.2206356
1	0xbd83d111	-0.064363606
2	0x3dc883c6	0.09790759
3	0x3d62e358	0.055392593
4	0x3e3438fd	0.17599864
5	0xbe3a1078	-0.18170345
6	0x3e0654a4	0.13118225
7	0x3e983140	0.29725075
8	0x3e8b448b	0.27200732
9	0x3e355e37	0.17711721
10	0xbe1c70f5	-0.15277465
11	0xbcf3b40d	-0.02974894
12	0x3e81f0f2	0.2537914
13	0x3cb4e891	0.022083553
14	0xbe76ab8d	-0.24088879
15	0x3d8ac394	0.06775585
16	0xbd83051e	-0.063974604
17	0x3e17ac69	0.14811863
18	0xbd2477a3	-0.040153157
19	0x3d970706	0.073743865
20	0xbea66d04	-0.32505047
21	0x3e63be8b	0.22240655
22	0xbd1d478e	-0.038398318
23	0x3e6f3bd2	0.23362663
24	0xbd7425c8	-0.059606344
25	0x3e7391c5	0.23786075
26	0x3deda3ac	0.116034836
27	0xbe269ebc	-0.1627149
28	0x3e562a82	0.20914653
29	0xbda77f25	-0.08178548
30	0x3e885175	0.26624647
31	0x3e86aa0b	0.26301607

conv_layers.3.weight f4 [64, 32, 3, 3]
0	0xbdfd7405	-0.123756446
1	0xbd59a971	-0.053140108
2	0xbe0e2f28	-0.13885176
3	0xbe95c978	-0.2925527
4	0xbe2b809c	-0.1674828
5	0xbe85ef01	-0.26158908
6	0xbe947ccd	-0.29001465
7	0xbe5588ea	-0.2085301
8	0xbe5b6e4f	-0.21428798
9	0x3e3d14b0	0.18464923
10	0x3ea7812e	0.32715744
11	0x3e89cdaa	0.26914722
12	0x3e2b7c4c	0.16746634
13	0x3e819529	0.25309113
14	0x3ea7b0e6	0.3275215
15	0xbc93f634	-0.018061735
16	0xbde4e9d0	-0.11177409
17	0xbdac02e0	-0.08398986
18	0xbe46838f	-0.19386123
19	0x3d95e84e	0.07319699
20	0xbda2d5bc	-0.07950923
21	0xbdc64ba0	-0.09682393
22	0x3e22e3c0	0.15907192
23	0xbdc7bc77	-0.09752744
24	0xbe8b292f	-0.27179858
25	0xbdc350d9	-0.09536905
26	0xbdca3055	-0.098725
27	0x3e522318	0.205212
28	0x3e197923	0.14987616
29	0x3e150399	0.14552154
30	0x3dd5f38d	0.10446844
31	0x3ddb6ce5	0.10714129
32	0xba557986	-0.00081434136
33	0x3e7f86cf	0.24953769
34	0x3dff5f87	0.12469392
35	0x3de2be2f	0.11071431
36	0x3c8bc54d	0.017061854
37	0x3b20aa71	0.0024515653
38	0xbdfb2d6b	-0.12264522
39	0xbd834ce0	-0.06411147
40	0xbd9f625a	-0.07782431
41	0xbdd51763	-0.10404851
42	0xbe08ab2e	-0.1334655
43	0xbc25da62	-0.010122867
44	0xbd7437ee	-0.05962365
45	0x3e383855	0.17990239
46	0x3e21be6e	0.157953
47	0x3e40ab9a	0.18815461
48	0x3e0c0a81	0.13675882
49	0x3e8b0f84	0.27160275
50	0x3e6250f2	0.2210119
51	0x3db15889	0.08659465
52	0x3e3613f0	0.17781043
53	0x3e56f1f2	0.20990732
54	0xbd1bb90e	-0.03801828
55	0xbdcfdf2e	-0.1014999
56	0xbc0132c9	-0.007885643
57	0xbddedecf	-0.10882341
58	0x3c6127b5	0.013742377
59	0x3c81cbc3	0.015844231
60	0xbde06a9f	-0.10957836
61	0xbdbf7155	-0.09347788
62	0xbdd087e8	-0.10182172
63	0xbe6d5b54	-0.2317937
64	0x3cff714e	0.031181958
65	0xbe905bf6	-0.2819516
66	0xbe00f223	-0.12592368
67	0x3e68fe80	0.22753334
68	0xbe107275	-0.14106162
69	0xbddbe56f	-0.1073712
70	0xbd032cd7	-0.032025184
71	0xbe3190c5	-0.17340381
72	0x3e845185	0.25843444
73	0xbe96529e	-0.29359907
74	0xbe50eba4	-0.2040239
75	0x3de69850	0.1125952
76	0xbead169e	-0.33806318
77	0xbe96b96b	-0.29438338
78	0x3cc47404	0.023981102
79	0xbea0f374	-0.3143574
80	0xbe8fdd02	-0.28098303
81	0x3da219c3	0.0791507
82	0xbd25fdb4	-0.040525153
83	0x3ca2f8aa	0.019893963
84	0xbc5cd6b6	-0.013478925
85	0xbdd4f1bb	-0.10397669
86	0xbe0966f1	-0.13418175
87	0x3ce8b813	0.028408086
88	0xbdfbf21d	-0.12302039
89	0xbd82c531	-0.063852675
90	0x3e8a70e2	0.27039248
91	0x3e001af9	0.12510289
92	0x3ded1814	0.11576858
93	0x3e11cdd4	0.14238673
94	0x3e9dc2bc	0.30812633
95	0x3ea9fc7c	0.33200443
96	0x3d64733b	0.055773955
97	0x3dc733cd	0.09726677
98	0x3e3b126d	0.18268748
99	0xbda58ee1	-0.080838926
100	0x3d177714	0.036978796
101	0x3d994d15	0.07485405
102	0xbc78df27	-0.015189922
103	0x3e0ddecc	0.13854522
104	0x3e0950b8	0.13409698
105	0x3ce4184b	0.027843615
106	0xbd038128	-0.032105595
107	0x3c0d3418	0.008618377
108	0xbe1d28d1	-0.15347601
109	0xbc788233	-0.015167761
110	0xbe6de6b8	-0.23232543
111	0xbe8a1628	-0.2697003
112	0xbe2037d1	-0.15646292
113	0xbe7c1cd2	-0.24620369
114	0xbe917ff4	-0.28417933
115	0xbe807a38	-0.25093246
116	0xbe993579	-0.2992361
117	0x3d9b8bd7	0.07595032
118	0x3c0305b5	0.007996966
119	0x3d928908	0.07155043
120	0x3dce0016	0.1005861
121	0xbc3584b0	-0.011078998
122	0x3daf45e0	0.085582495
123	0x3d0949a0	0.03351748
124	0x3d2b754b	0.041859906
125	0xbb644428	-0.0034830663
126	0xbd8f7006	-0.07003789
127	0xbd31c0e9	-0.043396864
128	0xbb1c29f7	-0.0023828724
129	0xbb901453	-0.004396954
130	0x3ca65378	0.020303473
131	0x3d15102c	0.036392376
132	0xbda2ceab	-0.07949575
133	0xbcf75f75	-0.030196885
134	0xbc375f8e	-0.011192216
135	0x3df806e5	0.1211069
136	0x3e498160	0.19678259
137	0x3e9ae56a	0.30253154
138	0xbca7b189	-0.020470398
139	0xbd0d5b8f	-0.034511145
140	0x3cbbbafd	0.022916311
141	0xbd88efb8	-0.06686348
142	0xbddf2c0c	-0.10897073
143	0x3c6e84e5	0.014558052
144	0x3e28ae2d	0.16472693
145	0x3e4432d2	0.19160011
146	0x3e6add07	0.22935878
147	0x3eafff3d	0.3437442
148	0x3df75580	0.12076855
149	0x3e48e15e	0.19617221
150	0x3ea0e515	0.31424776
151	0x3e8844f0	0.26615095
152	0x3da2f569	0.079569645
153	0x3dd3a2aa	0.1033376
154	0x3e2629b7	0.1622685
155	0x3e16117b	0.14655106
156	0xbcf0ace8	-0.029379323
157	0x3dd734d1	0.10508121
158	0x3d865116	0.06558435
159	0xbe539fb2	-0.20666388
160	0xbd54a00e	-0.051910453
161	0x3cce6294	0.02519349
162	0x3da7d331	0.081945784
163	0x3d45a4a7	0.048252728
164	0x3bed60fd	0.007244228
165	0x3ddd380f	0.10801708
166	0x3e8954d3	0.26822528
167	0x3e6a652b	0.22890155
168	0xbd6ce088	-0.057831317
169	0x3d4dcddc	0.05024515
170	0x3daa4ff2	0.083160296
171	0x3e6eac50	0.2330792
172	0x3d8aeb1d	0.067831255
173	0x3e188e90	0.14898133
174	0x3e0cca84	0.13749129
175	0x3d873ed3	0.0660378
176	0x3c859bb7	0.016309602
177	0x3d85586f	0.06511008
178	0x3dda99de	0.10673879
179	0x3e05a543	0.13051324
180	0x3c20661b	0.009789969
181	0x3d37b391	0.044848982
182	0x3da972d1	0.082738526
183	0x3c11cf1a	0.0088994745
184	0x3cd84c41	0.026403548
185	0xbd1fbc45	-0.038997907
186	0xbdf08fad	-0.11746154
187	0x3b8ad598	0.004236888
188	0x3cd1b9bd	0.025601262
189	0x3dc932ce	0.09824143
190	0xbcc9065a	-0.024539161
191	0x3d082bb7	0.033244815
192	0xbd7f3bed	-0.06231301
193	0xbd9e42cf	-0.077275865
194	0xbdce8ae9	-0.10085089
195	0xbcd20e00	-0.025641441
196	0xbdb20aa8	-0.08693439
197	0xbd983517	-0.07432001
198	0x3e5f274a	0.21792331
199	0x3e4e8170	0.20166564
200	0x3e6a2ca9	0.22868599
201	0x3e0e4435	0.13893206
202	0x3e9169fc	0.28401172
203	0x3e7ad502	0.24495319
204	0x3d367a64	0.044550315
205	0x3e36df7c	0.1785869
206	0x3e4b087b	0.19827454
207	0xbd4547cf	-0.048164185
208	0x3e0cf232	0.13764265
209	0xbdf0481b	-0.11732503
210	0xbdd10ef1	-0.10207928
211	0x3e0b70ae	0.13617203
212	0xbd3a8249	-0.045534406
213	0xbe04aa0f	-0.12955497
214	0x3c2412c9	0.010014244
215	0xbe3b22f5	-0.18275054
216	0xbcc08103	-0.023499018
217	0x3e00b1c4	0.12567812
218	0x3d3a36d5	0.04546245
219	0x3e0463a0	0.12928629
220	0x3da7397d	0.08165262
221	0xbc037d9e	-0.008025555
222	0x3d2b51b6	0.041825972
223	0x3dfc68e7	0.12324696
224	0xbd2e2eb2	-0.042525
225	0x3d93bdfe	0.072139725
226	0x3d9cc06d	0.0765389
227	0x3d083af3	0.033259343
228	0x3c2cb637	0.01054149
229	0x3d8daab4	0.06917325
230	0xbc5a045c	-0.013306703
231	0x3cc2bbdd	0.02377122
232	0x3d023136	0.031785212
233	0xbd9368b9	-0.07197709
234	0x3e56088a	0.20901695
235	0x3e16c879	0.14724912
236	0x3db85b52	0.09001793
237	0x3e192e00	0.14958954
238	0x3dbc2785	0.09187225
239	0x3dd5f653	0.10447373
240	0x3e3b06bd	0.18264289
241	0x3dbefd3c	0.093256444
242	0x3cf5609a	0.02995329
243	0x3c42b67d	0.011884329
244	0x3dfa083b	0.12208601
245	0x3db2dc60	0.087334394
246	0x3d26efe9	0.04075614
247	0xbd8cf7c5	-0.06883196
248	0x3c6d44f1	0.014481769
249	0xbcd70f5f	-0.026252447
250	0x3df7f3c0	0.121070385
251	0xbdb5f2ce	-0.08884202
252	0xbeacd39f	-0.33755204
253	0xbd4c33ab	-0.049853962
254	0xbf08ed56	-0.53487146
255	0xbe4104ff	-0.18849562

conv_layers.3.bias f4 [64]
0	0xbe479750	-0.19491315
1	0xbd38cc7f	-0.045116898
2	0x3e94c954	0.2905985
3	0xbe8d244a	-0.2756675
4	0xbe22fd74	-0.15916997
5	0x3d03898a	0.03211359
6	0xbd0cb28d	-0.034349967
7	0xbb80fd8a	-0.003936474
8	0xbdb95151	-0.09048713
9	0xbd17b7ef	-0.037040647
10	0xbea526ad	-0.3225607
11	0x3dea8865	0.114517964
12	0x3e6a8988	0.22904027
13	0xbd7b0a16	-0.061288916
14	0xbe16d840	-0.1473093
15	0xbc71f9b3	-0.014769006
16	0xbd8e56e1	-0.069501646
17	0xbdc11968	-0.09428674
18	0x3d9cda87	0.07658868
19	0x3ed219b3	0.41035232
20	0x3edb13e2	0.42788607
21	0xbd5ac2f4	-0.053408578
22	0xbd8a8c17	-0.06765001
23	0xbe1cb3d4	-0.15302974
24	0x3e14a44e	0.14515802
25	0x3cfbe360	0.03074807
26	0x3e341f18	0.17589986
27	0x3d8370e7	0.06418019
28	0x3d9b2ebe	0.07577275
29	0xbc31d7ee	-0.010854704
30	0xbd8e57b8	-0.06950325
31	0x3d50dc21	0.05099118
32	0xbe1dbf24	-0.15404946
33	0xbd8aa705	-0.06770138
34	0xbe2e094f	-0.16995738
35	0xbd3bb932	-0.045830913
36	0xbb7d6b77	-0.003866879
37	0xbc42e482	-0.011895301
38	0xbbff18b5	-0.0077849277
39	0xbd33dd1d	-0.043912042
40	0xbdbdaf5d	-0.092619635
41	0xbe35b5c1	-0.17745115
42	0xbe4b1ec1	-0.1983595
43	0xbda72885	-0.08162025
44	0xbde48b55	-0.11159388
45	0x3da03951	0.07823432
46	0xbd9e786d	-0.07737813
47	0xbdb9f6d3	-0.09080281
48	0xbd105caf	-0.03524464
49	0xbe1dd5f4	-0.15413648
50	0xbd8290ef	-0.063753
51	0xbd888352	-0.06665672
52	0xbe72ff6e	-0.23730251
53	0xbd4464ca	-0.047947682
54	0xbe30962c	-0.17244786
55	0xbde9f7e7	-0.11424237
56	0x3e24a7b7	0.16079603
57	0xbce7a603	-0.028277403
58	0xbc7785c1	-0.015107573
59	0x3e20942b	0.15681522
60	0x3e3afb93	0.1826003
61	0x3e92974a	0.2863105
62	0x3e0fa0ad	0.14026137
63	0xbb865231	-0.0040991534

conv_layers.6.weight f4 [128, 64, 3, 3]
0	0xbd03e1ef	-0.03219789
1	0x3c2bd3fd	0.010487554
2	0xbce344f0	-0.027742833
3	0xbd0d23c1	-0.034457926
4	0xbafba0be	-0.0019197685
5	0x3cd1beeb	0.025603732
6	0x3c0a9a16	0.0084595885
7	0x3b7ae903	0.0038285858
8	0x3cb0e54b	0.02159371
9	0xbc99cfef	-0.018775908
10	0xbc1a22b4	-0.009407688
11	0x3a1d4953	0.0006000001
12	0xbb58cd58	-0.0033081379
13	0xbd0a7206	-0.033800147
14	0xbc5badab	-0.013408105
15	0xbc2d61e0	-0.010582417
16	0x3c4fe709	0.01268936
17	0xbcfd4108	-0.030914798
18	0xbd017e79	-0.031614754
19	0x3d21d122	0.039506085
20	0x3c82ba3b	0.015957942
21	0xbce8c3bc	-0.028413646
22	0x3b9d84f5	0.0048071095
23	0xbd06be1b	-0.032896142
24	0xbd1a3e46	-0.037657045
25	0xbc9e4337	-0.01931916
26	0x3d0c48fb	0.034249287
27	0x3af5ab1d	0.0018743012
28	0xbcb12bb7	-0.02162729
29	0xbd23ccda	-0.039990284
30	0xbd7d27ab	-0.06180541
31	0xbd7bc770	-0.061469495
32	0xbd3dc4ca	-0.04633025
33	0xbc47f848	-0.012205191
34	0xbd07a651	-0.033117596
35	0xbcfee40d	-0.031114602
36	0x3d028b80	0.03187132
37	0x3c0c5f7f	0.00856769
38	0x3c7ed7db	0.015554394
39	0xbca1f6f3	-0.019771075
40	0xbcea26f3	-0.028583026
41	0xbcc01880	-0.023449183
42	0xbcbb9fa8	-0.022903278
43	0x3c9d83d3	0.019227898
44	0xbba4ed24	-0.005033152
45	0xbd2c27d1	-0.04203016
46	0xbd335866	-0.043785475
47	0xbb1da7ba	-0.0024056272
48	0xbd15b8d9	-0.036553238
49	0xbd2eed53	-0.0427068
50	0x3cc66944	0.024220116
51	0xbd5b0376	-0.053470097
52	0x3c703aaa	0.014662424
53	0xbc29b49a	-0.010358
54	0x3cfbf4ff	0.030756472
55	0xbd0f62f3	-0.035006475
56	0xbce0638b	-0.027391216
57	0xbd23ece4	-0.04002084
58	0xbc6685db	-0.01407
59	0xbc67dde1	-0.014152021
60	0x3d03ead7	0.032206383
61	0x3ab2c689	0.001363949
62	0x3c8bfb06	0.01708747
63	0x3b577261	0.0032874572
64	0xbd267c9c	-0.04064618
65	0x3cadf8b4	0.021236755
66	0xbcdcc1f4	-0.026947953
67	0xbd3c5823	-0.04598249
68	0xbd82d94d	-0.06389103
69	0xbd12008b	-0.03564505
70	0xbd3bd087	-0.045853164
71	0xbd6c03bc	-0.05762075
72	0x3ccfb103	0.02535296
73	0x3c416e4d	0.011806083
74	0xbba6fc5a	-0.0050960006
75	0xbb428cc5	-0.0029685956
76	0x3cbd7499	0.023126887
77	0xbb8370f2	-0.004011267
78	0xbd291b6c	-0.041285917
79	0x3d138ede	0.03602492
80	0x3c31944e	0.010838581
81	0xba9a72ff	-0.0011783539
82	0xbcff02dc	-0.031129293
83	0xbce2018a	-0.027588625
84	0x3d0b1be3	0.03396214
85	0x3acbe247	0.0015555107
86	0xbcbeea2b	-0.02330502
87	0x3c8d24f5	0.017229537
88	0xbce44938	-0.027866945
89	0x3ccb31d3	0.024804031
90	0xbd131f0e	-0.035918288
91	0xbcbca277	-0.023026688
92	0xbca4e73e	-0.020129796
93	0x3cbad752	0.02280775
94	0xbc9dde60	-0.019271076
95	0xbd3881ae	-0.045045547
96	0xbd044698	-0.032293886
97	0x3c68c0a0	0.014206082
98	0xbd37edf0	-0.04490465
99	0xbd5b00af	-0.05346745
100	0xbcc4d325	-0.024026463
101	0x3cf023cc	0.029313944
102	0xbd939371	-0.072058566
103	0xbca6edb1	-0.020377012
104	0xbcb4868f	-0.022036819
105	0xbd018f20	-0.031630635
106	0x3c3079e4	0.0107712485
107	0xbc2c3361	-0.010510297
108	0xbd0b5b69	-0.034022722
109	0x3d0b71a0	0.034043908
110	0xbd196d1f	-0.03745758
111	0x3abaade8	0.0014242502
112	0x3cc30c4d	0.023809576
113	0xbd0ecc9e	-0.034863107
114	0xbc88bf37	-0.01669274
115	0x3c8a1745	0.016856799
116	0xbd1931de	-0.037401073
117	0xbc34e206	-0.011040216
118	0x3d2eee47	0.042707708
119	0xbced91d2	-0.029000197
120	0xbcf21371	-0.029550286
121	0xbca04a07	-0.019566549
122	0xbc98333b	-0.018579116
123	0x3d21c8e7	0.039498236
124	0x3d2441df	0.040101882
125	0xbd08f598	-0.03343734
126	0xbbd375c4	-0.0064532477
127	0xbb99defc	-0.0046957713
128	0xbb4f4ec1	-0.0031632634
129	0xbcfadb3f	-0.030622123
130	0xbc63befe	-0.013900517
131	0x3bc15a22	0.0059006372
132	0x3c600df6	0.013675204
133	0xbcd6d7bd	-0.026225919
134	0xbd087f62	-0.033324607
135	0x3d1c97f9	0.03823087
136	0x3bde6cc4	0.006787868
137	0xbbb6f2f9	-0.005583164
138	0xbcace4c5	-0.02110518
139	0xbd219d12	-0.039456435
140	0xbc3ef690	-0.011655465
141	0x3d487435	0.04893895
142	0x3c8a0882	0.01684976
143	0x3c8089d6	0.015690725
144	0xbce6c420	-0.028169692
145	0x3c5739ec	0.013136368
146	0x3cda367e	0.026637312
147	0xbc6d5070	-0.01448451
148	0xbd1d29d1	-0.038369957
149	0xbc155450	-0.00911434
150	0xbc16a879	-0.00919544
151	0xbb1b86b7	-0.002373142
152	0xbcc6f093	-0.024284637
153	0x3b17f005	0.0023183834
154	0xbc820362	-0.015870754
155	0x3cd4475b	0.025912931
156	0xbd2acf58	-0.041701645
157	0xbd004df3	-0.03132434
158	0x3ce767dc	0.028247766
159	0x3aadb3d6	0.0013252448
160	0x3cd1c25c	0.025605373
161	0xb9177757	-0.0001444494
162	0xbd086da2	-0.03330768
163	0xbbaa66d9	-0.0052002487
164	0xbbf82ad3	-0.0075734644
165	0xbcf4de6f	-0.02989122
166	0xbc67a805	-0.01413918
167	0xbd23f46d	-0.040028024
168	0xbc95a811	-0.018268617
169	0xbc94bcb6	-0.01815639
170	0xbc5623a0	-0.013070017
171	0x3bd7b979	0.0065833894
172	0xbd077025	-0.033065934
173	0xbc1915c1	-0.009343565
174	0x3c5a6a34	0.013330985
175	0xbb1679f0	-0.0022960864
176	0x3c8addaa	0.0169514
177	0xbc7341de	-0.014847247
178	0x3d2a1cc9	0.041531358
179	0xbc038864	-0.0080281235
180	0xbc7c7435	-0.015408565
181	0xbafc7510	-0.0019260962
182	0xbd462969	-0.048379336
183	0xbd958012	-0.07299818
184	0xbd56565b	-0.05232845
185	0xbc4f95de	-0.012670008
186	0xbd802609	-0.06257255
187	0xbd892740	-0.066969395
188	0xbd63ed18	-0.055646032
189	0x3c4427bc	0.011972364
190	0xbc8c88da	-0.0171551
191	0xbd0477ee	-0.032340936
192	0x3a2beb7c	0.0006558222
193	0xbcf82ce3	-0.030294841
194	0x3b6ce0fd	0.0036144846
195	0xbc6f4f71	-0.014606343
196	0xbc652535	-0.013985922
197	0xbc3465ba	-0.011010582
198	0xbd19c7ee	-0.037544183
199	0xbcf34c3a	-0.029699434
200	0x3c8a3815	0.016872445
201	0xbc7c3f33	-0.015395927
202	0xbcad98f3	-0.021191096
203	0xbd014049	-0.031555448
204	0x3c078455	0.0082712965
205	0x3ce1eb39	0.027577983
206	0x3bc2423f	0.0059283073
207	0xbad73bfd	-0.0016421076
208	0xbd01f6e4	-0.031729594
209	0xbc2c61bf	-0.010521351
210	0xbd14ed90	-0.03635937
211	0xbd17dfba	-0.037078597
212	0xbd4e29d2	-0.05033285
213	0x3c18a539	0.009316736
214	0x3ca5c5cb	0.020235917
215	0x3d059cb4	0.032620147
216	0x3cddc924	0.02707345
217	0x3ccaefe5	0.024772594
218	0x3cee0bdf	0.029058395
219	0x3caad4af	0.020853369
220	0xbd61e5e9	-0.0551509
221	0xbd12eebe	-0.035872214
222	0x3c2c354e	0.010510756
223	0xbbcea329	-0.0063060713
224	0xbcca38f0	-0.024685353
225	0x3cce5308	0.025186077
226	0x3c529638	0.012853198
227	0x3ccd2dc5	0.025046239
228	0xbcaae949	-0.020863192
229	0xbbcb5ff2	-0.006206506
230	0xbd0517f3	-0.032493543
231	0x3c104485	0.008805399
232	0x3c8400de	0.016113695
233	0xbc24179a	-0.010015393
234	0xbb475870	-0.0030417703
235	0xbc8a0ca5	-0.016851733
236	0x3d0ca1cb	0.034333985
237	0x3a9ab0d6	0.0011801969
238	0xbd1aca6a	-0.037790693
239	0x3b88831d	0.0041660205
240	0x3c520808	0.012819298
241	0xbd1e06ce	-0.03858071
242	0x3cfbba52	0.030728493
243	0x3ca048a4	0.019565888
244	0x3d06880b	0.032844584
245	0x3bfc2963	0.0076953634
246	0xbb45698d	-0.0030122728
247	0x3cd68da0	0.026190579
248	0x3a6bd0e1	0.0008995664
249	0x3cc1e160	0.023667037
250	0xbc127f9a	-0.008941555
251	0xbc903dd4	-0.017607607
252	0xbcdee283	-0.027207619
253	0x3bb8fd7b	0.0056454516
254	0xbd1b01b9	-0.03784344
255	0x3c966672	0.018359397

conv_layers.6.bias f4 [128]
0	0xbd03ce9b	-0.032179456
1	0x3d0fb933	0.03508873
2	0xbc9c1c72	-0.019056533
3	0xbd0097bb	-0.0313947
4	0xbc484deb	-0.012225608
5	0x3cff53e4	0.031167932
6	0x3c2b80fe	0.010467766
7	0x3d0bd9e1	0.034143332
8	0xbe192794	-0.14956504
9	0xbe0d88bf	-0.13821696
10	0x3d735299	0.059404943
11	0xbd7552f7	-0.059893575
12	0x3dbd66b6	0.09248106
13	0x3db3e401	0.08783723
14	0x3ee1a8ef	0.440742
15	0xbcf18456	-0.029482048
16	0xbd8d21b0	-0.06891191
17	0xbb9878e6	-0.004653084
18	0xbd8e1cb0	-0.069390655
19	0xbc998560	-0.018740356
20	0xbd922f4c	-0.071379274
21	0x3e6cc26c	0.23121041
22	0xbe24b0b5	-0.16083033
23	0xbd77dc6e	-0.060512953
24	0x3de7859f	0.11304783
25	0xbdadc183	-0.08484175
26	0xbd8b590f	-0.06804096
27	0xbd1fdad3	-0.039027046
28	0xbc4c7066	-0.01247797
29	0x3d6d6a22	0.057962544
30	0x3e1343d8	0.14381349
31	0x3e118ee6	0.14214668
32	0xbd7231a6	-0.05912938
33	0x3a7daec6	0.00096772274
34	0xbd3ae209	-0.04562572
35	0xbac78445	-0.0015221915
36	0x3e3ef44b	0.18647878
37	0x3b1438df	0.0022616906
38	0xbe3ccf9f	-0.18438576
39	0xbd836cf2	-0.06417264
40	0x3de0c30b	0.109747015
41	0xbd8a601f	-0.06756615
42	0x3c1e2f37	0.009654812
43	0x3a964b8b	0.0011466605
44	0xbd4fe75e	-0.05075776
45	0xbd648eda	-0.055800296
46	0xbcfb16c3	-0.030650502
47	0x3e197c2b	0.14988773
48	0x3c49a722	0.012307914
49	0xbe0ff98c	-0.14060038
50	0xbe4fedf4	-0.20305616
51	0xbcf0672b	-0.02934607
52	0xbd3361ce	-0.043794446
53	0xbd91d185	-0.07120041
54	0xbd244223	-0.040102135
55	0x3d27d2cd	0.04097252
56	0x3c38fded	0.011291009
57	0xbdc80eb0	-0.097684264
58	0xbdca5399	-0.09879226
59	0xbd7439f5	-0.059625585
60	0xbc4e01d8	-0.012573682
61	0x3d306562	0.043065436
62	0xbc98d69e	-0.018657025
63	0xbd7c857f	-0.06165075
64	0x3c0e0ed5	0.008670528
65	0x3e09b88c	0.13449305
66	0x3e4a6daf	0.19768403
67	0xbcbf01eb	-0.023316344
68	0xbc987f9a	-0.018615533
69	0x3e37863e	0.17922303
70	0x3cbbe8f7	0.022938235
71	0xbcf819c0	-0.030285716
72	0x3ad1e50f	0.0016013699
73	0x3c3499a6	0.011022961
74	0xbd637309	-0.055529628
75	0xbd26c00a	-0.040710486
76	0xbdca8735	-0.0988907
77	0x3b29ebee	0.0025927979
78	0x3d80ccb4	0.06289044
79	0x3cb4b5a7	0.022059275
80	0x3cb0f5ea	0.021601636
81	0xbdf414e5	-0.11918048
82	0x3db0a2c0	0.08624792
83	0xbd931cb5	-0.0718321
84	0x3e57c897	0.21072613
85	0xbc9bb989	-0.019009368
86	0xbdefaa00	-0.11702347
87	0x3e3e4f2b	0.18584888
88	0x3e1d2767	0.15347062
89	0xbcd55894	-0.026043214
90	0x3d9ad5e4	0.07560328
91	0x3cb2f025	0.021843025
92	0xbd447789	-0.04796556
93	0x3de61df1	0.112361796
94	0x3d879872	0.066208735
95	0x3cbd1fb4	0.023086406
96	0xbd92fc3b	-0.071770154
97	0x3ac0ab98	0.0014699576
98	0x3d8bbac5	0.06822733
99	0x3e4f54c6	0.20247182
100	0xbd9abde5	-0.07555751
101	0xbd07a284	-0.03311397
102	0x3ed7dfac	0.42162836
103	0xbc8f905d	-0.017524892
104	0xbc9fe2de	-0.019517358
105	0x3de2462a	0.11048539
106	0x3e88bf6a	0.26708537
107	0xbda100ec	-0.07861504
108	0x3d2192b9	0.039446566
109	0xbd82c96a	-0.06386073
110	0xbaa28200	-0.0012398362
111	0x3ba11686	0.004916015
112	0xbd9c5d5d	-0.07634995
113	0xbcc10f26	-0.023566794
114	0xbc5c0cdb	-0.013430799
115	0x3deab47e	0.114602074
116	0xbdddaf82	-0.10824491
117	0xbd888a91	-0.066670544
118	0x3d032e71	0.03202671
119	0x3d772d1c	0.060345754
120	0xbe0478e3	-0.1293674
121	0x3dea57b5	0.1144251
122	0xbe137653	-0.14400606
123	0xbaeb91fd	-0.0017972585
124	0x3dda2077	0.106507234
125	0xbcd8214c	-0.026383065
126	0xbc85a5d7	-0.01631443
127	0x3b1255e0	0.0022329018

classifier.weight f4 [14, 128]
0	0xbd09e652	-0.033666916
1	0x3d9f6377	0.07782643
2	0xbcbcd391	-0.023050101
3	0x3d383328	0.04497066
4	0xbdc09a5c	-0.09404442
5	0xbdde8172	-0.108645335
6	0x3d99bcb9	0.07506699
7	0x3dd22064	0.10260084
8	0xbe617544	-0.2201739
9	0x3e06d157	0.13165794
10	0x3d2b96fb	0.041892033
11	0xbbc0895d	-0.00587575
12	0xbc8a8d06	-0.016912948
13	0x3da3075a	0.079603866
14	0x3e211b13	0.15732984
15	0x3cb5bd38	0.022184953
16	0x3e2a071d	0.16604276
17	0xbdb07014	-0.08615127
18	0x3d810d8d	0.06301413
19	0x3d8088fb	0.06276127
20	0x3d93fcd5	0.07225958
21	0x3e471cf0	0.19444633
22	0x3dec384a	0.11534174
23	0xbd8eea1d	-0.06978247
24	0x3e1afa98	0.15134656
25	0xbe86dfcc	-0.26342618
26	0xbd08c1d9	-0.033387993
27	0x3d17f7a7	0.037101414
28	0xbd9b0cdb	-0.07570811
29	0xbb49b21b	-0.0030776325
30	0xbf27715a	-0.65407336
31	0x3ec65aaf	0.3874106
32	0x3e1d858b	0.15382974
33	0x3d46e84a	0.048561372
34	0xbdaa2a9e	-0.0830891
35	0xbd6d4866	-0.057930373
36	0xbe46579e	-0.19369361
37	0x3b98fbbf	0.0046686823
38	0x3d0136a2	0.031546243
39	0xbe1d4338	-0.15357673
40	0x3e0512ab	0.12995403
41	0x3cae02cd	0.02124157
42	0xbe180715	-0.14846452
43	0x3e597257	0.21235023
44	0x3d92416a	0.07141383
45	0xbd3445a6	-0.044011734
46	0x3d934435	0.07190744
47	0xbe1d4202	-0.15357211
48	0xbd1ad64d	-0.03780203
49	0xbe1998dc	-0.14999717
50	0x3ef86c00	0.48519897
51	0x3bcc76d5	0.006239752
52	0xbce00b59	-0.027349161
53	0x3d64a94a	0.05582551
54	0xbd715ff8	-0.058929414
55	0x3e2199ac	0.15781277
56	0xbd253067	-0.040329363
57	0xbcd0c8f8	-0.025486454
58	0xbe8529c9	-0.26008442
59	0xbcfa4312	-0.03054956
60	0xbe5f347e	-0.21797368
61	0x3d314fd3	0.043289017
62	0xbe914f54	-0.28380835
63	0x3d242b73	0.0400805
64	0xbc8a7b9a	-0.016904641
65	0x3e817510	0.25284624
66	0xbf60685e	-0.8765925
67	0x3d266fc9	0.04063395
68	0xbd7765c4	-0.060399786
69	0xbd502553	-0.050816845
70	0x3d103c8c	0.035213992
71	0x3c9bc2ff	0.01901388
72	0xbb45cfb0	-0.0030183606
73	0x3c0714d2	0.00824471
74	0xbd2dba59	-0.042414043
75	0xbc361ab0	-0.011114761
76	0xbe9e0389	-0.30862072
77	0xbd65b728	-0.056082875
78	0x3c65e672	0.014031993
79	0x3c80346e	0.01565
80	0xbd045fdf	-0.032317992
81	0xbd0754c2	-0.033039816
82	0x3e0c84d1	0.1372254
83	0x3c471fbb	0.012153561
84	0xbf09e8d9	-0.5387092
85	0xbe24aaa5	-0.1608072
86	0xbc4f887c	-0.012666818
87	0x3e05f471	0.13081528
88	0x3e7bf138	0.24603736
89	0x3c57c665	0.01316986
90	0xbf65b64a	-0.89731276
91	0xbc34f861	-0.011045546
92	0x3a388728	0.0007039183
93	0x3c232673	0.0099578975
94	0x3cf60432	0.030031297
95	0xbd512be7	-0.05106726
96	0xbdd1803b	-0.10229536
97	0x3cee42c8	0.029084578
98	0xbf18cb2e	-0.5968503
99	0x3e53912c	0.20660847
100	0xbcf94376	-0.030427676
101	0x3dd5bc9b	0.10436364
102	0x3e0a5deb	0.1351239
103	0xbc6224a7	-0.013802684
104	0xbddd9dff	-0.10821151
105	0x3e3b6c1f	0.18302964
106	0x3dd3deba	0.10345216
107	0x3c60c6d4	0.013719279
108	0x3d8333c1	0.06406356
109	0x3df8ec53	0.1215445
110	0xbd716d21	-0.058941964
111	0x3ea7e187	0.3278925
112	0xbe3ed3d2	-0.1863549
113	0x3db627a4	0.088942796
114	0x3de51d83	0.111872695
115	0xbf0a6cc7	-0.5407223
116	0xbd1c9c4f	-0.038235005
117	0x3f0d448b	0.55182713
118	0xbee0e030	-0.4392104
119	0xbdd55d61	-0.10418201
120	0xbe061fad	-0.13098021
121	0x3cf4c8b2	0.029880855
122	0x3ee900c9	0.45508412
123	0xbd911bc2	-0.070853725
124	0xbe0886e8	-0.13332713
125	0x3da359a8	0.07976085
126	0xbcc2b45b	-0.02376764
127	0x3d93f877	0.07225125
128	0xbd96cd01	-0.0736332
129	0x3d5780e9	0.052613173
130	0xbc1bd723	-0.009511742
131	0x3d310b1d	0.04322349
132	0x3c0edc4f	0.008719518
133	0x3d1a3b61	0.037654284
134	0xbd4b840d	-0.04968648
135	0xbe4bd3a6	-0.19904956
136	0xbc9f3e7a	-0.01943897
137	0x3d4f24fa	0.050572373
138	0x3e4aa852	0.19790772
139	0xbd7520fc	-0.05984591
140	0x3e749e6a	0.23888555
141	0xbe63e8dd	-0.22256799
142	0xbe03d48d	-0.1287405
143	0xbc29718c	-0.010342013
144	0x3e101508	0.14070523
145	0x3cd659fe	0.026165958
146	0xbd09a74d	-0.033606816
147	0x3d86347b	0.065529786
148	0xbd537f1e	-0.0516349
149	0xbe817217	-0.25282356
150	0x3dd66f8c	0.10470495
151	0xbd9ff14d	-0.07809696
152	0xbb20c8d6	-0.002453377
153	0xbd0cfd02	-0.034420975
154	0xbbf7093f	-0.007538944
155	0xbe756ff8	-0.23968494
156	0x3d0078b5	0.031365115
157	0x3db2d7ad	0.08732543
158	0x3da1df52	0.07903923
159	0xbd54f1b6	-0.051988326
160	0xbdd10b92	-0.10207285
161	0xbd6b6b65	-0.057475466
162	0x3eddca82	0.43318564
163	0x3d0a1748	0.03371361
164	0xbdc947d5	-0.09828154
165	0xbd1003ae	-0.03515976
166	0xbed51b0e	-0.41622204
167	0xbe86e451	-0.26346067
168	0xbe8cbb6f	-0.2748675
169	0xbd97a74a	-0.07404955
170	0x3e42b815	0.19015534
171	0xbf4726f4	-0.7779381
172	0xbc5a0a2b	-0.013308088
173	0x3de388f4	0.11110106
174	0x3da2ac0c	0.079429716
175	0x3d0b45b1	0.03400201
176	0x3d4e3d24	0.050351277
177	0x3ca9d497	0.020731254
178	0xbd4e8615	-0.05042084
179	0x3a9bea1b	0.001189533
180	0x3c7e8f99	0.015537166
181	0x3d49d8af	0.04927891
182	0x3ccde349	0.025132792
183	0x3e0e113a	0.13873759
184	0xbca95865	-0.020672033
185	0xbd207bf2	-0.039180703
186	0xbb0ee1f4	-0.002180216
187	0xbcf03b71	-0.029325219
188	0x3dcbe9b0	0.09956682
189	0x3e2293bb	0.15876667
190	0x3c13be1d	0.0090174945
191	0x3e6adfc7	0.22936927
192	0xbac0daa7	-0.0014713601
193	0xbde5ac0e	-0.112144575
194	0x3d44205b	0.04788242
195	0xbd3c549c	-0.045979127
196	0xbe01bb28	-0.1266905
197	0x3e8550fc	0.2603835
198	0xbdc9efaa	-0.098601654
199	0xbd1d5067	-0.038406756
200	0xbc5af28c	-0.013363492
201	0xbd54d238	-0.051958293
202	0x3c8270c9	0.01592292
203	0x3db9308e	0.09042464
204	0xbd532498	-0.05154857
205	0x3d7e8a9f	0.062143918
206	0x3e8f7043	0.28015336
207	0xbd85c988	-0.0653258
208	0xbd9c2d07	-0.07625776
209	0xbe548bee	-0.20756504
210	0xbe856ef2	-0.26061207
211	0xbc5f2e03	-0.01362181
212	0x3cb6045b	0.022218874
213	0x3db13709	0.08653075
214	0x3cd6ca80	0.026219606
215	0xbe19c1dc	-0.15015358
216	0xbd9d18b5	-0.07670728
217	0xbe43fe88	-0.19140065
218	0x3da46043	0.08026173
219	0xbd9b8409	-0.07593543
220	0x3d91f3ae	0.07126556
221	0xbde74a19	-0.1129343
222	0x3de16af8	0.11006731
223	0xbe7ff0c1	-0.24994184
224	0xbea8efe5	-0.32995525
225	0xbd631e87	-0.055449035
226	0xbe3848f3	-0.17996578
227	0xbe827a15	-0.25483766
228	0xbd0720d4	-0.03299029
229	0xbd64d319	-0.05586538
230	0xbed5e09e	-0.41772932
231	0xbd05bc22	-0.03265012
232	0x3d7cb367	0.06169453
233	0xbe2dff27	-0.16991864
234	0x3cffd8d5	0.031231323
235	0xbd107598	-0.035268396
236	0x3dcd1a46	0.10014777
237	0xbef520d5	-0.4787661
238	0x3d9986b2	0.07496394
239	0xbc83c4c9	-0.016085045
240	0x385e978b	5.307006e-05
241	0xbdb66a9d	-0.089070536
242	0x3e7e863b	0.24855892
243	0x3d87b0cc	0.06625518
244	0x3cdb31a8	0.026757076
245	0x3dd73ed9	0.10510034
246	0xbe9af03b	-0.30261406
247	0x3e38065c	0.17971176
248	0xbd4ce8fc	-0.05002688
249	0x3e08aa17	0.13346134
250	0x3de872a1	0.11349989
251	0x3cca4f42	0.024695996
252	0xbf1af308	-0.60527086
253	0xbdc12e48	-0.094326556
254	0x3cb7d560	0.022440612
255	0xbd581276	-0.05275198

classifier.bias f4 [14]
0	0xbdb2c35a	-0.087286666
1	0x3e2beb97	0.16789089
2	0x3c2b545a	0.010457123
3	0xbd1627a9	-0.036658917
4	0x3da08795	0.0783836
5	0xbe39058f	-0.18068527
6	0xbda60a27	-0.08107405
7	0x3d32a0ec	0.0436105
8	0x3cccdab7	0.025006635
9	0x3c60ad33	0.013713169
10	0xbdaa8f07	-0.083280616
11	0xbe0f57ca	-0.13998333
12	0xbbcabec8	-0.0061872937
13	0x3dc7939e	0.097449526
