best_r2plus1d_model.pth (torch, 560608 bytes, 10 tensors)

layer1.0.weight f4 [64, 3, 1, 3, 3]
000000 f5 95 81 be 5c 9e 66 be 15 bc 93 be 0f 87 86 be
       -0.2530972 -0.22521347 -0.28854433 -0.26274917
000010 7c fa 4a be 4a 60 f7 3c 96 b7 cb 3e b1 30 88 3e
       -0.19822115 0.030197281 0.39788502 0.2659965
000020 bb d7 07 3e 13 18 1c bf 10 3e d3 be 79 42 12 bf
       0.13265888 -0.60974234 -0.41258287 -0.5713268
000030 17 f0 96 bd a5 b4 a3 be 5e af 06 be f9 3d 11 3e
       -0.07370012 -0.31973758 -0.13152835 0.14183797
000040 db 6c 4f 3e 6a 75 a0 3e e2 6e ed be e4 be 0a bf
       0.20256369 0.3133958 -0.4637366 -0.54197526
000050 4c 72 cd be 53 4d 61 be 8e d6 f9 bd ef 49 84 be
       -0.40126264 -0.22002153 -0.12199126 -0.25837657
000060 b8 7d 68 3e 25 26 54 3e 68 4f b2 3e f3 ce 32 bf
       0.22704208 0.20717676 0.34826207 -0.6984703
000070 ec 62 2b bf 7b 49 53 bf f1 18 f5 be f7 4a 21 be
       -0.6694782 -0.82534 -0.4787059 -0.15751253
000080 65 67 32 bf e2 41 4c be 30 aa a2 be 7f 57 c9 be
       -0.6968902 -0.19947007 -0.31770468 -0.39324567
000090 5f 4f 5c bf 28 74 3f bf 55 34 33 bf 46 f2 f3 be
       -0.8605861 -0.74786615 -0.7000173 -0.47645777
0000a0 12 70 3f be 27 04 98 be 7f 9c a3 be 8d fb 8c be
       -0.18695095 -0.29690668 -0.31955335 -0.27535668
0000b0 7d f6 29 be 89 0f 4a be 4f 17 7f 3e cc 84 e4 3d
       -0.16597934 -0.19732489 0.24911235 0.111581415
0000c0 a5 ec 5b 3e cb 8c c0 3e 21 8e a2 3e 50 92 30 3e
       0.21476991 0.37607417 0.3174906 0.17243314
0000d0 24 3e ec 3e a4 30 2a 3e 90 8a 8a 3e 45 65 8a 3d
       0.4614116 0.16620117 0.2705884 0.06757597
0000e0 bd ff 8c 3e b1 76 0a be f9 74 a5 bd ec 61 15 3d
       0.27538863 -0.1352184 -0.080789514 0.03647034
0000f0 e6 76 91 bd 6e 73 3a be fb 97 dc 3d 9b 4e 83 3e
       -0.07102756 -0.18208095 0.107711755 0.2564591
000100 1c 7b 76 3e c5 36 a6 3e 23 5f 29 be 42 70 7b be
       0.240704 0.3246366 -0.16540198 -0.24554542
000110 ee e7 51 3e 53 5f f0 be c1 d0 ff be b0 50 64 3e
       0.2049863 -0.46947727 -0.49963954 0.22296405
000120 f8 f4 00 3e d6 08 21 be f5 5c ad 3e 46 64 26 be
       0.12593448 -0.15726027 0.33859983 -0.16249189
000130 39 24 a4 be 27 a0 a5 bd 3c 46 0d bf 26 38 18 bf
       -0.32058886 -0.08087187 -0.55185294 -0.59460676
000140 93 3a f4 bd 47 06 89 be ca 32 4a be b6 ef a2 be
       -0.11925235 -0.26762602 -0.19745937 -0.3182351
000150 50 6f 6f bc 7d c2 84 bb 32 61 92 be 27 db ca be
       -0.014613941 -0.004051505 -0.2858978 -0.39620325
000160 d0 af ea be 1b 79 d0 bd 7b 06 7a 3e 88 d0 57 3d
       -0.4583726 -0.10179349 0.24416535 0.052689105
000170 60 73 2e 3e 2c 7d 58 3e 31 36 8f bd 28 4d 0a bd
       0.170362 0.211415 -0.06992758 -0.03376499
000180 2d 1b af 3a 5a fe 76 bc 3b 1e f0 3d 7f d5 77 3e
       0.001335954 -0.015075291 0.11724516 0.24202536
000190 de 39 15 3e c2 28 53 3e a4 16 ae 3d a3 74 35 3e
       0.14572856 0.20621017 0.08500412 0.17720275
0001a0 72 f8 9f 3d 2e 0d ee ba 81 03 25 be 08 8c 39 be
       0.07811059 -0.0018161887 -0.16114618 -0.18119824
0001b0 cd f5 06 be 10 d6 a6 3d a8 65 02 3e 31 2d 0a be
       -0.13179703 0.08146298 0.12734091 -0.13493802
0001c0 60 10 8f be 32 90 a9 bd c1 e5 ac be 85 00 27 be
       -0.2794218 -0.08279456 -0.33769038 -0.16308792
0001d0 8b 25 f2 3d a1 a7 2c bd cb 1d db 3d 48 fd 84 3e
       0.11823567 -0.04215205 0.10699042 0.25974488
0001e0 b8 b9 56 be 82 6a 36 be 9d a6 29 3e 2a 9f d6 bd
       -0.20969284 -0.17814067 0.16567464 -0.10479577
0001f0 da db 0a bd 0b fc b6 3d 2f bb 44 3e f5 70 8a 3e
       -0.033901073 0.08934792 0.1921203 0.27039304
000200 0c 0a 90 3e 52 2e 89 be de bb 28 be b7 5b 53 b9
       0.28132665 -0.26793152 -0.16477916 -0.00020156695
000210 2a cd 1b be 69 3a e8 bd bc 56 42 3e d9 78 9d 3e
       -0.15214983 -0.11339266 0.18978399 0.30756262
000220 25 34 2a be 38 63 05 3e 7a c4 50 be ae 74 c2 bd
       -0.16621454 0.1302613 -0.2038745 -0.09494911
000230 d9 17 c2 be b0 89 d0 3d b7 c2 9f be 12 92 08 be
       -0.3790882 0.10182512 -0.31203243 -0.13336971
000240 5f 56 72 3e cb 7a 36 be 70 c9 ba bd 54 16 80 3c
       0.2366576 -0.1782028 -0.091204524 0.015635647
000250 66 81 86 be 4a 84 f5 be 0c e3 12 be 40 ac 75 be
       -0.26270598 -0.4795249 -0.14344424 -0.2399149
000260 e2 ba e6 be 67 7e d1 3e ac 38 23 3e 88 12 1f 3e
       -0.45064455 0.4091675 0.15939587 0.15534413
000270 1e b7 9a 3e 9b e8 0c be 4a c0 0f 3e 5a 0e ee 3d
       0.30217832 -0.13760607 0.14038196 0.11623831
000280 2e b8 bf bb 15 34 87 3d c8 a6 49 be 2b 4e 53 3e
       -0.0058508134 0.06601731 -0.19692528 0.20635287
000290 9d 92 89 3e 78 5a 20 be 79 75 18 be 1f d6 7b 3e
       0.2686967 -0.15659511 -0.14888562 0.245934
0002a0 a6 54 9e be 86 ec d5 3d 78 b5 03 3e 56 c4 a9 bd
       -0.30923957 0.10445504 0.12862194 -0.08289401
0002b0 56 93 07 3e b0 0c 14 3e 6c e5 98 be 71 2d 63 3e
       0.13239798 0.14457965 -0.29862535 0.22185303
0002c0 eb 23 4b bc c1 2b 8c be 73 ef 0f be 16 91 e7 3d
       -0.0123987 -0.27377132 -0.14056186 0.1130697
0002d0 c7 d3 5a be 72 ef 36 3e 2c a0 63 3d 39 7b bf bd
       -0.21369849 0.17864779 0.055572674 -0.09349675
0002e0 17 77 c9 bd bc b4 3c 3e c9 05 55 be ce 07 4e 3e
       -0.09837168 0.1842832 -0.20802988 0.20120165
0002f0 1d 31 87 3e 33 cc 96 bd 7a e2 ef 3d 45 19 5a be
       0.26404658 -0.07363167 0.11713119 -0.21298702
000300 e5 71 11 be 82 5f 82 3d 32 e5 f8 3d 16 f9 f9 3c
       -0.14203604 0.06365873 0.121530905 0.030514281
000310 fb d8 ba bd 0b a1 c7 bd e3 fe 1d 3e 53 aa 96 bd
       -0.09123417 -0.097475134 0.15429263 -0.073567055
000320 98 cc 4c 3e 25 a8 88 3e e8 c8 d3 bc ef 4c 3f 3e
       0.19999921 0.26690784 -0.025852636 0.18681692
000330 8b 70 12 3e 89 3c 81 bd 19 6f 57 3e 85 b4 96 3d
       0.14300744 -0.06310374 0.21038474 0.0735865
000340 46 f6 76 3e 72 64 1d 3e bc 74 3b 3e 86 96 78 3e
       0.24117383 0.15370348 0.1830625 0.2427617
000350 a0 7b 96 3d ee 04 62 3e 2f 63 1b 3e 7b 07 ec 3d
       0.07347798 0.22072193 0.15174554 0.11524864
000360 0d 2f bb be 15 92 03 3e e0 ab c9 bd ba 5d ee be
       -0.36559334 0.12848695 -0.09847236 -0.46555883
000370 a2 f2 eb 3d 51 e9 8a be 75 6f ca be 6f 0d ba bc
       0.11520888 -0.2713113 -0.3953816 -0.022711484
000380 63 ee 6e be f5 73 81 be 08 f5 10 3e 89 fd 88 3d
       -0.23333125 -0.2528378 0.14155972 0.06688983
000390 e4 59 6b be dd e9 4c 3e 7b a0 bd 3d 08 e1 10 be
       -0.2298351 0.20011087 0.09259125 -0.14148343
0003a0 af 76 98 3e 3a d6 01 3e 6f 4f aa bb 68 a9 74 3e
       0.29778048 0.12679377 -0.0051974575 0.23892748
0003b0 88 39 0c bd eb c2 26 3e 63 2d b7 3e db 65 9b bd
       -0.034234554 0.16285293 0.35776815 -0.07587787
0003c0 24 24 9f bd c5 9e e5 3e 24 fd 6b 3d c0 04 9a 3c
       -0.07770565 0.44847694 0.05761446 0.018801093
0003d0 cd e5 2c 3e eb ee 96 be a1 0d 04 3e fe 49 c4 bb
       0.16884537 -0.29479155 0.12895824 -0.005990266
0003e0 66 b2 8a bd 04 70 91 be d6 e1 87 be 4f f1 e1 be
       -0.06772308 -0.28405774 -0.26539487 -0.44129416
0003f0 58 76 d9 bd e8 2e 72 bc b9 04 a9 be 76 e1 91 3d
       -0.106182754 -0.014781691 -0.33011416 0.071230814

layer1.0.bias f4 [64]
000000 02 f0 61 bd 67 91 8c 3e 4b d4 60 3d fb d3 4b 3e
       -0.05516053 0.27454683 0.05488996 0.19905083
000010 0d 67 7f 3d cd 5b 10 3e 7f 24 a6 bd 31 55 c0 be
       0.062354136 0.14097519 -0.0811243 -0.37564996
000020 ea c2 80 bd c2 14 b2 3d 8b 24 86 3e ac a4 0f bc
       -0.06287177 0.086953655 0.26199755 -0.008767288
000030 5f 2a 96 be 01 c6 11 3e a3 fb 2e 3d 7d 40 8a 3e
       -0.29329202 0.14235689 0.04272045 0.27002326
000040 89 95 70 3e 21 4d d4 bd ea ea c6 bd 21 fa 5b 3e
       0.23494543 -0.10366274 -0.09712775 0.21482135
000050 12 02 b0 be 19 3f db bc 9b 42 8c 3e 38 27 44 be
       -0.3437658 -0.026763486 0.27394566 -0.19155586
000060 7e 7f a9 bb 12 fc ce bd 8a a0 2f 3e 43 fd 83 bc
       -0.005172669 -0.10106672 0.17151085 -0.016111976
000070 3b fb 37 3d 60 1d 94 3d 49 0c 33 3e f9 db 26 3e
       0.044917326 0.07232165 0.17485155 0.1629485
000080 af 4c 92 bd 63 49 00 bd 0f ea 50 3e 33 81 84 be
       -0.071435325 -0.031319987 0.20401786 -0.2587982
000090 e4 71 44 be 7b d0 12 3d a5 ea a0 bb f5 50 db 3d
       -0.19184071 0.035843354 -0.0049107843 0.10708801
0000a0 a8 83 4b 3e 0e 29 8a 3d a0 31 32 3e 49 8a 70 be
       0.19874442 0.06746112 0.17401743 -0.23490252
0000b0 7e 7d 62 be c8 5a 92 3d 8f ad 92 3e 00 8d 04 3e
       -0.22118184 0.071462214 0.2864804 0.12944412
0000c0 d7 6e 92 3d 4c b4 c4 be e5 a8 52 be e5 8e af bd
       0.07150047 -0.38418806 -0.2057224 -0.08572177
0000d0 79 df d2 3d 6d 80 36 be 55 eb ce bc 61 86 b7 3c
       0.1029653 -0.17822428 -0.0252587 0.022402944
0000e0 b9 d1 6e 3e ba 03 fc bd 3c 44 d8 3d 1d c5 8a be
       0.2332219 -0.12305398 0.1055989 -0.2710351
0000f0 0a 2c 29 be 78 bb 9a be 31 74 34 3e 60 d2 78 3e
       -0.16520706 -0.30221152 0.17622449 0.24299002

layer1.2.weight f4 [64, 64, 3, 1, 1]
000000 cc 59 9e be 5e bf 8c be 98 91 91 be cf 96 a7 3c
       -0.30927885 -0.27489752 -0.28431392 0.020457653
000010 ae 90 64 be 5d 47 4e 3e 60 3d 27 be 4a 56 15 bf
       -0.22320816 0.2014441 -0.16332006 -0.5833479
000020 e7 df ba 3c ba 91 a1 3d 96 a6 b2 3d 72 f9 c5 3d
       0.022811843 0.07889123 0.0872318 0.096667185
000030 f6 26 4d be f5 43 bc be 53 a9 30 be d8 d7 1f be
       -0.20034394 -0.36770597 -0.17252092 -0.15609682
000040 c5 b3 63 be 0f fe a6 bd 29 fb 3a be a6 3a 80 be
       -0.22236545 -0.081539266 -0.18259872 -0.25044745
000050 70 63 84 be 9c ab 4f 3d 4d 60 c5 bc a7 32 61 bc
       -0.25857115 0.05070077 -0.024093771 -0.013744987
000060 85 80 21 be 89 ce 0d be 85 46 01 be c7 52 33 3d
       -0.15771683 -0.13848318 -0.12624557 0.043780115
000070 f3 98 00 bd 43 f7 63 3c 00 84 d1 be af 09 54 bf
       -0.031395864 0.013913932 -0.4092102 -0.82827276
000080 c9 74 48 be ff 9a d2 be 7f a0 b7 be 8e 12 e9 be
       -0.195758 -0.41133878 -0.35864636 -0.4552197
000090 7d 5a 36 bc e7 23 2b 3d 48 47 f0 3b 4d f5 dd bd
       -0.0111299725 0.041782286 0.007332716 -0.10837803
0000a0 29 28 6b be 95 aa 73 be 61 a1 38 bd a0 3d 45 bd
       -0.22964539 -0.2379554 -0.045075778 -0.048154473
0000b0 14 f8 59 bd 7d b1 47 be 43 b6 21 bf 79 97 79 bd
       -0.0532151 -0.195013 -0.63168734 -0.06093547
0000c0 c0 71 d3 3d 55 a1 2b be 2f 92 17 3e 47 da 1c bd
       0.103244305 -0.16760762 0.14801858 -0.038294103
0000d0 07 0d 8f 3d 09 e5 95 bc 07 04 db be 80 ec ca be
       0.06984907 -0.018297689 -0.4277651 -0.3963356
0000e0 7d f1 9f be 5f 3e 5a bd 49 e0 01 bf 30 78 35 3b
       -0.31238928 -0.053282138 -0.50732857 0.0027690046
0000f0 bd 0d 8b 3e 6e d9 cc 3e df 21 9f 3e b9 af af 3d
       0.2715892 0.40009636 0.3108053 0.08578438
000100 de 82 87 3d 47 de 35 3d 62 15 85 3c 53 f7 0d 3d
       0.06616758 0.044401433 0.016245548 0.034659695
000110 b8 30 50 3d 0f da 21 3f f4 d8 2a 3f 14 6f 17 3f
       0.05082771 0.63223356 0.66737294 0.59153867
000120 da 48 90 3d f1 b0 c2 3d 3e 85 38 3c ff 7f b6 be
       0.07045145 0.09506405 0.011262236 -0.35644528
000130 81 f5 bb be 4a a0 c5 be ea 1e 97 3d 1c 9c 65 3d
       -0.36710742 -0.38598853 0.07378943 0.05605708
000140 f6 2e 7a 3e 75 16 83 be 21 90 87 be 7a 08 85 be
       0.24431977 -0.2560307 -0.2647715 -0.2598303
000150 a4 66 8e bf b2 2e 99 bf d1 b7 9a bf 98 48 26 be
       -1.1125073 -1.1967375 -1.2087346 -0.1623863
000160 06 0a 61 be 6c 87 3e be 9d 9d 78 3e a3 86 5e 3e
       -0.2197648 -0.18606347 0.24278875 0.21731047
000170 aa e9 25 3e 4b 4e 22 3f 36 9b 14 3f 62 3f 17 3f
       0.16202417 0.63400716 0.58049333 0.5908109
000180 75 a8 a5 be 45 95 9e be 62 91 a9 be 2a d9 73 be
       -0.32355085 -0.3097326 -0.3311873 -0.2381331
000190 c1 07 e5 bd a9 20 29 be c0 c1 ad 3d b7 31 ae 3d
       -0.111831196 -0.16516365 0.084842205 0.08505576
0001a0 84 cd 35 3e 43 86 23 3d 4f d4 0d bc ac 16 a0 bd
       0.17754179 0.039922964 -0.008656575 -0.07816824
0001b0 46 eb 06 3d 8c ea ab 3c 4f 0c 1b bd 69 7c ed bd
       0.032939218 0.020985864 -0.037853535 -0.11595995
0001c0 79 f1 24 be 1d 88 4c be 8d b4 49 be ee e8 0c be
       -0.1610774 -0.19973798 -0.19697781 -0.1376073
0001d0 a3 88 4f be 02 a1 12 3e e4 0a 61 3e 57 f6 0c 3e
       -0.20266967 0.14319232 0.2197681 0.13765846
0001e0 f0 36 ee bd 6b 2d c5 bd d2 f6 28 be ce 65 b6 3e
       -0.11631572 -0.096278034 -0.16500404 0.35624546
0001f0 5c 26 b5 3e 1e 6e c5 3e 7d 31 ab 3d 56 0f aa bd
       0.35380828 0.38560575 0.083590485 -0.08303706
000200 97 f4 4a 3c f7 0a b7 3d c8 04 29 3d be ad b0 bc
       0.012387416 0.08937638 0.041264325 -0.021567222
000210 82 6f 80 3e 97 e1 74 3e 85 20 71 3e f3 ef 7f be
       0.25085074 0.2391418 0.23547561 -0.24993877
000220 1b 6e 9e be cb 41 79 be 0d 71 b5 be 65 98 a1 be
       -0.3094338 -0.24341504 -0.35437813 -0.3156158
000230 c0 63 b6 be 5f bb e7 3e 58 a0 fd 3e f0 5a f5 3e
       -0.35622978 0.4526014 0.49536395 0.47920942
000240 1d e2 0b bd 7e aa 51 3c 70 57 ca 3c 87 42 57 be
       -0.034151185 0.012796996 0.024699897 -0.21021472
000250 85 2d 7e be a9 82 48 be 63 d3 a0 be 05 07 ae be
       -0.24822052 -0.19581093 -0.31411275 -0.3398973
000260 5b 2e e1 be b1 82 90 3c 8b 9a 21 3c 3f 96 06 bd
       -0.4398068 0.017640444 0.009863506 -0.03285813
000270 47 10 24 be e9 55 ee be a5 60 ab bd c1 3f 2c bf
       -0.16021834 -0.4654992 -0.08368043 -0.6728478
000280 81 8a 1d bf b3 b7 0d bf 99 fb d9 3d 11 c6 4c 3e
       -0.61539465 -0.5535843 0.106436916 0.19997431
000290 59 ae 05 3e b0 6d 9b bd a3 08 02 be 26 5a 58 bd
       0.1305479 -0.075892806 -0.12698607 -0.052820347
0002a0 e5 41 c9 be f4 12 22 bf 03 a6 a3 be e1 d2 9a bd
       -0.39308086 -0.6331017 -0.31962594 -0.07559753
0002b0 af ae fa bd 95 d6 91 bd f5 54 3f be 58 bf 17 be
       -0.122403495 -0.071210064 -0.18684752 -0.14819086
0002c0 da 5c 39 be 1c bb 32 3e b5 96 73 3e 5a 61 6d 3e
       -0.18101826 0.17454189 0.23787959 0.23181668
0002d0 98 4c c9 be 1b a0 b8 be 5b 23 93 be b3 99 0a 3e
       -0.3931625 -0.3605965 -0.28737912 0.13535194
0002e0 54 d8 e1 3d 2f c7 02 3e fd b3 5e 3e 6d 6f b1 3d
       0.110275894 0.12771295 0.21748348 0.08663831
0002f0 fe 90 1c 3e 7c 99 01 3c bd 0c 9f be b0 f7 ad 3d
       0.15289685 0.007910129 -0.31064406 0.08494508
000300 d3 db ff bd 0c 5a 0b be d7 61 1f be c9 e4 a3 bd
       -0.124931 -0.13608569 -0.15564667 -0.08002622
000310 72 03 f1 bd e1 40 8e bd 5f c1 0c bf fe 3c 04 bf
       -0.11768235 -0.069459684 -0.5498256 -0.51655567
000320 04 21 f7 be 63 0b 9d bd 5a 68 4e be b9 e0 06 be
       -0.48267376 -0.076681875 -0.20156994 -0.13171662
000330 85 28 c1 3d 47 c3 1f bd 01 3b e0 3d 82 12 84 3d
       0.094315566 -0.03900459 0.10948754 0.064488426
000340 79 3c 61 bc 17 c8 66 3c 98 04 b2 3e 87 c6 9f 3e
       -0.013747328 0.014085791 0.3476913 0.31206152
000350 80 7e bd 3e 5f c4 b6 bd 7b 6f 01 be e0 2c 8e bd
       0.37010574 -0.089241736 -0.12640183 -0.06942153
000360 ae 5c d9 3e 6d 81 f9 3e 92 fd bd 3e 3a b4 6d bd
       0.4245352 0.48731557 0.3710752 -0.058033206
000370 e8 73 9d bd 29 1f 9b bd 12 78 20 be 39 86 37 be
       -0.07688123 -0.07574303 -0.15670803 -0.17922296
000380 81 8f 29 be 97 24 c5 be 3e 49 a8 be ee 15 a9 be
       -0.16558649 -0.38504478 -0.3286838 -0.33024544
000390 2c 37 33 be 6f 4f 76 be fa b1 5f be 35 61 c6 be
       -0.17501515 -0.24053739 -0.21845236 -0.38746038
0003a0 21 30 06 bf 31 1e d7 be 36 3d b7 bb 9f 1f 91 bd
       -0.5241719 -0.42015222 -0.0055920137 -0.07086109
0003b0 21 12 36 3b 3f 36 b1 bc fc 3e 1d be 4e 52 7a bd
       0.0027781802 -0.021632312 -0.15356058 -0.061113648
0003c0 bf 08 84 bb 49 47 2d 3d ec 81 57 3d 3c f4 b6 bd
       -0.004029363 0.04230431 0.052614138 -0.08933303
0003d0 4f bc 6b bd f4 d8 bc bd 16 57 fa bb 78 1f 60 bd
       -0.057552632 -0.09221068 -0.007639776 -0.05471751
0003e0 f5 e7 a6 3d f0 1e d4 be 13 fe b6 be 44 70 9d be
       0.08149711 -0.41429853 -0.35740718 -0.30749714
0003f0 92 b0 07 3c 60 74 d4 3d 51 f9 06 3e e0 a3 d5 bd
       0.008281844 0.10373759 0.13181044 -0.10431647

layer1.2.bias f4 [64]
000000 8f 22 df bc 81 f6 18 3d 5e 50 04 bc cb 4d b5 bd
       -0.027238159 0.03734446 -0.008075802 -0.088527285
000010 27 1a 81 3e 0d b1 c3 3c 69 95 aa bc f9 f5 91 be
       0.25215265 0.023888135 -0.020823197 -0.28507975
000020 be 55 66 3e 7c 3d 85 3e 35 28 d0 be 0a c5 3e bc
       0.22493646 0.2602347 -0.40655676 -0.011643657
000030 a7 77 3e 3e 5a 3e 0d 3d 1d ba c3 bc 0b b6 13 be
       0.18600331 0.03448329 -0.023892457 -0.14424913
000040 1e fd fb bd 42 1a 3d 3c 08 06 7d 3e ae 91 bb 3d
       -0.12304138 0.011541905 0.24709332 0.091586456
000050 13 04 e2 bd d4 d6 ec be 91 e5 36 bd 58 3c 03 bb
       -0.11035933 -0.4625765 -0.044652525 -0.0020024981
000060 18 e4 a7 3e 18 4f 43 3e 0f 74 89 bd 64 27 bc 3d
       0.3279121 0.1907314 -0.067115895 0.09187201
000070 d1 ed 65 3c cd c0 bb be 7e d1 14 bd 83 14 65 bc
       0.014033751 -0.36670533 -0.0363326 -0.013981941
000080 ac 5b 9f bd 52 fa 4a be 46 b2 e1 3d ac 53 5e be
       -0.07781157 -0.19822052 0.11020331 -0.21711606
000090 87 83 18 be 56 34 ad be 1d d1 fe 3c 84 07 60 3d
       -0.14893924 -0.33828992 0.031105572 0.054694667
0000a0 97 99 0d 3e 6f ae 35 be 3d 14 2d be d5 31 f6 bc
       0.13828121 -0.17742322 -0.16902252 -0.030053059
0000b0 ee ca 7e bd c6 06 06 be ce d8 97 bd 9d 76 24 bd
       -0.062205248 -0.13088521 -0.07414399 -0.04015218
0000c0 a6 e9 0a be c7 89 a4 be 3e ea 63 3e 99 56 a1 be
       -0.13565692 -0.32136366 0.22257325 -0.3151138
0000d0 ff 4f d0 bd db 6a b7 be 94 4f ca 3d 27 45 3a bd
       -0.10171508 -0.35823712 0.098784596 -0.045476105
0000e0 d3 cd 44 3d e2 35 e4 be 5d 94 bc bd e3 b6 15 be
       0.04804785 -0.4457236 -0.092079856 -0.14620547
0000f0 87 55 cd be a2 38 dc bd 53 7e 79 3d 58 6b f6 3c
       -0.40104315 -0.10752989 0.060911488 0.030080482

layer2.0.weight f4 [128, 64, 1, 3, 3]
000000 a5 69 c2 bd 57 a9 28 be 2d 1a 28 be b6 07 97 be
       -0.09492806 -0.16470848 -0.16416235 -0.2949807
000010 7e 3b 03 bf 92 84 0f bf f6 4d 4e be 47 83 96 be
       -0.5126265 -0.5606166 -0.20146927 -0.29397032
000020 cf 49 bd be c5 4e 81 be 74 b1 7e be 75 93 1a ba
       -0.36970374 -0.2525541 -0.2487238 -0.00058966066
000030 ef 52 ac be de cb 88 be de 69 f5 bd 9a d2 a1 be
       -0.33657023 -0.26718038 -0.11983083 -0.3160599
000040 c5 44 d9 bd 87 f8 29 be 12 ca 5f bd 3a 84 eb 3d
       -0.1060882 -0.16598712 -0.05463607 0.114998296
000050 89 28 a6 3d 90 c8 a3 3d 76 d8 22 3e 63 82 24 3e
       0.081132 0.07997239 0.15902886 0.16065364
000060 f2 4c ca 3c 8e 24 e6 3d 3c 05 f8 3d 58 80 01 bf
       0.024694894 0.11237441 0.121103734 -0.5058646
000070 7d 28 4e bf dd 09 08 bf 22 00 c7 be 0a 5f 3c bf
       -0.8053053 -0.5314005 -0.3886729 -0.7358252
000080 e6 13 fc be 2a 6c a3 be cc 1f cd be ce 0f 02 bf
       -0.4923393 -0.3191846 -0.40063322 -0.50805366
000090 e6 2e 9c be 7a 5f 85 be 37 26 92 be ec e9 7d be
       -0.3050453 -0.26049405 -0.2854478 -0.24796265
0000a0 1b d5 a2 be 0b 18 8a be e7 77 31 be f5 69 49 be
       -0.31803212 -0.26971468 -0.17330895 -0.19669326
0000b0 07 c9 4b be 36 eb 25 3e bf aa 61 3e 0d 37 5e 3e
       -0.19900905 0.16203007 0.2203779 0.21700688
0000c0 13 70 21 3e f9 1b 37 3e 5b fc 2c 3e 63 88 09 3e
       0.15765409 0.17881764 0.16893141 0.13430934
0000d0 dc 3b fa 3d 4b 89 48 3e 1e 74 2e 3e cf 23 97 b9
       0.122184485 0.19583623 0.17036483 -0.00028827644
0000e0 05 af 67 3e ff 85 43 3e 70 58 1b bd 88 3a 37 3e
       0.22625358 0.19094084 -0.037926137 0.17893422
0000f0 a2 e4 53 3e 26 28 20 be ad 54 14 3e 1d 12 64 bc
       0.20692685 -0.15640315 0.14485426 -0.013920334
000100 06 fb 75 bd 8d db 0d 3b 73 9d 34 3d ef b8 8f 3d
       -0.060053848 0.0021645755 0.044095468 0.07017695
000110 8b 1f 1b 3d 40 ad 03 3e 21 37 7d 3e 82 b2 2f 3e
       0.03787188 0.12859058 0.24728061 0.17157939
000120 ad a7 4a 3e 22 74 27 3e 5d 1c 18 3e 80 fd e1 3d
       0.19790526 0.16352895 0.1485457 0.110346794
000130 a4 30 04 3e 6f 5d b5 3d 66 1e 91 3d 69 ce 91 3d
       0.1290918 0.08855712 0.07085876 0.07119448
000140 6d c9 bf 3d 63 11 2b be 37 f2 7c be fd 0a 43 be
       0.09364591 -0.16705851 -0.24701773 -0.1904716
000150 f3 a6 18 be f4 62 4c be 7d a0 e2 bd be b8 2b 3b
       -0.14907436 -0.19959623 -0.11065767 0.0026202644
000160 31 04 ab bd 08 e0 8b bc 20 f6 ac 3c 39 a3 d4 bb
       -0.08350409 -0.0170746 0.021113455 -0.006489184
000170 f9 bf c9 bd 3d df ce 3c f7 7d b6 3c 73 45 40 bd
       -0.09851069 0.025252933 0.022276862 -0.046941232
000180 c6 f0 3a 3d 1e 65 fc 3c cd f4 7c bd 15 f5 33 bc
       0.045639776 0.030809935 -0.061756898 -0.010983725
000190 46 21 82 bc 1e 17 a4 3c 6e a1 d5 bc c2 6c c3 3b
       -0.015885007 0.020030554 -0.026077952 0.0059638927
0001a0 46 f2 48 3c a4 b1 2e bc 98 ed ae bc cc 05 ef 3c
       0.012264794 -0.01066247 -0.021353528 0.029177569
0001b0 59 f9 b4 be 22 f3 c3 be 13 6a 8d be 96 4c a7 be
       -0.35346487 -0.38271433 -0.2761999 -0.32675618
0001c0 1f 76 8e be f6 b1 62 be 93 46 66 be a5 47 34 be
       -0.27824494 -0.22138199 -0.2248786 -0.17605455
0001d0 9b 87 05 be ad 01 a7 be 44 7b 15 be 1d cf 8c bd
       -0.1304001 -0.32618466 -0.14597803 -0.06875441
0001e0 e4 72 40 be cf 7d f9 bb d1 a5 12 3d 3d 71 5c be
       -0.18793827 -0.0076138745 0.035802666 -0.21527572
0001f0 51 09 8a bc 56 bd 8f bd d1 8a bf be cf 70 52 be
       -0.016850146 -0.07018535 -0.37410596 -0.20550846
000200 fc 18 c2 bd d3 32 54 be 6a ca 92 3b 4b 49 15 3c
       -0.09477422 -0.20722513 0.004479696 0.009111713
000210 7a 69 40 be 9d 4a 92 bd 8c cc 90 bd e1 d3 9c 3c
       -0.18790236 -0.071431376 -0.07070264 0.019144
000220 cb 4b c2 bc 62 a2 48 bd 88 39 93 bd 55 74 f7 bd
       -0.023717782 -0.048982985 -0.071887076 -0.120827354
000230 d1 df 21 be 51 d1 7b 3e 76 cc 1e 3e 32 29 22 3e
       -0.15808035 0.24591567 0.15507683 0.15836027
000240 25 e2 59 bf 32 12 2c bf 75 e6 f1 be 2e f9 24 bf
       -0.85110694 -0.67215264 -0.47246137 -0.6444272
000250 f3 f6 13 bf a6 c0 0c bf 26 8b 07 bf 10 e4 e8 be
       -0.5779869 -0.5498146 -0.529467 -0.45486498
000260 83 3c 23 bf 81 f4 2d be 6e 9b 8d bd 36 06 92 3d
       -0.6376421 -0.16987802 -0.069144115 0.07130091
000270 56 e2 3c bd a6 ca b6 3d f5 ca be 3d 1d af 32 be
       -0.04611429 0.08925371 0.09316055 -0.17449613
000280 a0 c8 cb 3c 10 00 67 bd e7 63 1a 3e d9 a2 eb 3d
       0.024875939 -0.056396544 0.15077172 0.1150567
000290 36 dc 63 3e 09 9c b0 3e eb 61 9c 3e 30 2d 99 3e
       0.22251973 0.34494045 0.30543455 0.29917288
0002a0 96 a0 54 3e 23 c7 1e 3e da 5f 60 3e 62 8a 8a 3d
       0.20764384 0.15505652 0.21911564 0.06764676
0002b0 1d e9 80 3d db 0c 0d 3e a9 8f 92 3e 5c 0d 93 3e
       0.06294463 0.13774435 0.2862523 0.2872113
0002c0 08 e0 97 3e af 49 d5 3b a9 29 16 3c d2 14 1f 3d
       0.2966311 0.006509028 0.009165206 0.038838215
0002d0 35 54 b7 bc 3a 68 19 bd 75 26 a6 3d 7b cc df 3d
       -0.02237902 -0.037452914 0.08112804 0.109276734
0002e0 0e 0f 07 3e 73 7e 91 3d 7e 9a 0c bc 5b ed b5 bb
       0.13189337 0.071041964 -0.008581756 -0.0055519766
0002f0 69 88 dc bc 98 ce 82 3e c4 1c b2 3d ed e3 68 3d
       -0.026920514 0.25548244 0.08696893 0.056857992
000300 be a2 2a 3e 99 3a 60 bd f6 3f c4 bd 28 da 2f 3e
       0.16663644 -0.054743383 -0.09582512 0.17173064
000310 94 fd d2 bb 29 d1 b9 bc ab 04 ac b8 d7 80 eb 3c
       -0.0064389203 -0.022682743 -8.2024686e-05 0.028747959
000320 b3 10 65 bc 3a f7 cb 3b b3 2d 11 bd bd af 9d 3b
       -0.013981032 0.00622454 -0.035443973 0.0048122094
000330 94 48 b5 3c fa a3 8b bb be bb 56 bc b9 38 56 bd
       0.022129335 -0.004261491 -0.013106285 -0.05230019
000340 b2 91 54 39 66 da 16 bd 21 72 bf 3c e6 79 a7 bc
       0.00020272171 -0.036829375 0.02336985 -0.020443868
000350 66 e8 c6 bb 3d ed 62 3c e6 d5 12 bd 4d 33 10 bc
       -0.0060701845 0.013850507 -0.03584852 -0.008801294
000360 4b 27 2b 3e 65 6d 22 3e ef c2 ca 3d bb 96 08 3e
       0.16714208 0.15862043 0.09900462 0.13338749
000370 da a8 3d 3e cd d5 cc 3d a5 9b 11 3e 08 b5 36 3e
       0.18521443 0.10001717 0.1421953 0.17842495
000380 9f 7a 21 3e fb 16 59 3d 2d 49 03 3e 68 46 2d 3e
       0.15769432 0.05300043 0.12820883 0.16921389
000390 47 23 45 3e ce ce 8b 3e 0b a5 9f 3e 3d 8e 96 3d
       0.19251738 0.27306217 0.31180605 0.073513485
0003a0 f5 d4 ce 3d 12 80 fb 3d b9 f7 44 3b 93 f4 56 3b
       0.10099212 0.12280287 0.003005488 0.0032799586
0003b0 26 76 c0 bc 1b 3d 58 bd a9 cc ca 3c 5b cd 4b bd
       -0.023493838 -0.05279265 0.024755793 -0.04975639
0003c0 30 4d 77 3c 88 f8 92 3c 4b 93 8d 3c bd d2 b6 3d
       0.0150940865 0.017940775 0.017282149 0.08926914
0003d0 7e cc f0 3b eb 39 1d 3c 11 61 07 3e 99 98 46 3d
       0.007348596 0.009596328 0.13220622 0.048485372
0003e0 5a 91 92 3d 8f 27 61 3e d9 d0 36 3e f6 75 8c 3e
       0.0715663 0.21987747 0.17853107 0.27433747
0003f0 5d 01 77 39 1b 33 e6 3d 82 bf 18 3e 8e fa c9 3d
       0.00023556263 0.11240216 0.14916804 0.09862243

layer2.0.bias f4 [128]
000000 f8 a3 44 3e cd ba 1d 3d 58 c3 a5 3d 04 ce 45 bd
       0.19203174 0.038508225 0.080938995 -0.048292175
000010 90 04 e3 bd 3f 29 be 3d 1e 2e 45 3e 73 be b6 bd
       -0.110848546 0.09285211 0.19255874 -0.08923044
000020 d4 00 d5 3e 26 f5 1f be f6 0a 49 bd 70 28 61 be
       0.41602194 -0.1562086 -0.04908272 -0.21988082
000030 21 30 39 bd 6f be a0 be a8 c9 47 be 46 9d 72 bc
       -0.045211915 -0.3139529 -0.1951052 -0.014808005
000040 13 57 e1 3b 6e 8b 72 bd 1d f0 d8 bd 66 8d a5 bd
       0.006876835 -0.059215 -0.10592673 -0.0808361
000050 a1 a7 da bc 29 48 ea bd 20 b1 bc bd 88 fb c9 bd
       -0.02669126 -0.11439545 -0.092134714 -0.09862429
000060 6e fb 95 bd 2d 51 9c bd 6d 3e d0 ba 7f 10 88 bc
       -0.07323347 -0.076326706 -0.0015887745 -0.016609428
000070 77 6b 46 bd 40 02 04 3f 85 93 47 be d6 6e d7 3d
       -0.04844233 0.51565933 -0.19489868 0.10519187
000080 c3 7a 9e 3c 24 d0 a4 be a0 dc 1e be 01 9a 84 3e
       0.019345647 -0.3219005 -0.1551385 0.25898746
000090 fc 3f 26 be 29 91 22 be 9a 6b 82 bd f2 7d bc 3e
       -0.16235346 -0.15875687 -0.063681796 0.3681484
0000a0 d0 83 59 bd f3 81 94 bd 5f 88 12 be cf 56 9c 3e
       -0.05310422 -0.07251348 -0.14309834 0.3053498
0000b0 63 20 e3 bc 24 36 80 3c a4 7d 4d bd e0 ab 92 bd
       -0.027725404 0.015650816 -0.05016865 -0.07161689
0000c0 ec 6e ed bd 39 a3 55 be 75 1a f5 ba 90 de 22 be
       -0.11593422 -0.20863046 -0.0018699901 -0.15905213
0000d0 3d 4f 9a bd 0d c8 68 bd d8 c9 56 3d 21 98 e9 bd
       -0.07534645 -0.05683141 0.052438587 -0.114059694
0000e0 a2 41 92 bd a6 68 c4 3c 86 17 08 3e 45 2e 0b be
       -0.07141425 0.023975682 0.13290223 -0.13591869
0000f0 51 1d 7b bc 11 d2 89 3b 59 f3 85 3d 03 12 93 3d
       -0.015326814 0.00420595 0.065405555 0.0718117
000100 51 72 8c bd 3e 2a 6d bd 23 f8 30 be b1 a9 d3 3d
       -0.068577416 -0.057901613 -0.17282157 0.103351004
000110 63 b9 11 bd 66 94 a9 bd 1a e1 d0 bd 41 63 13 bd
       -0.03557719 -0.08280258 -0.10199185 -0.035983328
000120 4c d9 2d be bb d9 68 bd 2f 53 8c bd 23 ac 8b 3d
       -0.16977423 -0.05684827 -0.068518035 0.06819942
000130 4b 42 94 3e b0 2d 5e bd 45 5a 69 bc b5 6b 0b bd
       0.28956828 -0.05424279 -0.014242713 -0.034038264
000140 da eb 95 bc 36 66 1c bd 16 b3 21 be 27 e1 46 bd
       -0.01830094 -0.038183413 -0.15790972 -0.048554566
000150 42 2d 7b bc 4e 79 14 bd 2b 02 aa 3c 41 f1 36 be
       -0.0153306145 -0.036248498 0.020752987 -0.17865469
000160 6f 2b 85 bd 00 36 01 3e e2 a0 13 be 73 7c 9e 3e
       -0.06502425 0.12618256 -0.1441684 0.30954322
000170 8a b3 1d bd 09 f7 d2 bd d4 6c bb bd a2 fa a5 bd
       -0.0385013 -0.103010245 -0.09151617 -0.08104445
000180 66 99 09 be 48 40 39 3d b8 2c df bd fb 64 c2 3c
       -0.13437423 0.04522732 -0.10897201 0.023729792
000190 3a ce c4 bc 03 8f 8b bd 6f 5d 25 3e 93 1e 1b 3f
       -0.024024118 -0.06814387 0.16148923 0.6059353
0001a0 d2 6f 6c bc 6c 66 60 bd 17 29 1c 3d 6a 4d 25 3d
       -0.014430957 -0.054785177 0.038125124 0.04035703
0001b0 c3 72 c8 bc df b9 d7 bd 53 d0 b2 bc 80 1f c3 bd
       -0.024468785 -0.10533499 -0.021827852 -0.095274925
0001c0 d5 15 95 be 15 96 3f bc 7c a3 e6 3c 0b 19 f1 bd
       -0.2911822 -0.011693497 0.028154127 -0.11772355
0001d0 a4 25 5c 3d 1d 3a 26 bd c6 20 75 bd d2 0a 14 be
       0.053746834 -0.040582765 -0.05984571 -0.14457253
0001e0 86 aa 40 3c 81 b3 82 bd 4a e8 9c bd b9 4a e6 bd
       0.011759406 -0.06381894 -0.07661493 -0.11244721
0001f0 aa 6c 62 be c5 ee ff bc 20 dc 27 be 10 3f ba bd
       -0.22111765 -0.031241784 -0.16392565 -0.090940595

layer2.2.weight f4 [128, 128, 3, 1, 1]
000000 5c 1a 48 bd 3b 8f 00 3d cc 30 77 bc 24 f5 64 bb
       -0.048853263 0.031386595 -0.015087318 -0.0034936154
000010 11 3c 5a bd ec 61 91 bd 1b d9 78 bc 80 d3 8a bc
       -0.05327994 -0.07098755 -0.015188481 -0.016946554
000020 98 82 7b bd c0 c7 df 3c 27 cb a8 3b b6 29 2a 3d
       -0.06140384 0.027316928 0.005151171 0.041543685
000030 91 2e b2 3c ef ec b5 3c b5 01 14 bd 6b 9a 21 bd
       0.02175072 0.022207705 -0.03613444 -0.039453905
000040 d7 67 34 bd 88 5e 33 bd 84 88 a1 bc 98 bd 80 bd
       -0.044044342 -0.043791324 -0.019718416 -0.06286162
000050 b5 6d 08 bd b6 5c 1d bd 42 db aa bc 7f da b7 bb
       -0.03330775 -0.038418494 -0.020856503 -0.0056107636
000060 24 b1 18 bd 27 a0 6e bc e2 d0 32 bd 47 36 e9 bc
       -0.03727831 -0.0145645505 -0.043656237 -0.028468264
000070 73 5b a7 3c 14 ab 64 bd 85 99 44 3c 01 d0 96 bc
       0.020429349 -0.055827215 0.0119994925 -0.01840973
000080 0b e2 e3 bc 47 8d 0e bb 88 9f 19 bd 0c 7a a2 bc
       -0.027817747 -0.0021751688 -0.037505656 -0.019833587
000090 6a ac c9 3c f2 aa eb bc e6 69 e1 bb 37 e8 48 3c
       0.024618346 -0.028768037 -0.006879079 0.012262396
0000a0 a6 31 c3 bc cd e8 a3 bd 7b cc e3 bb 71 c5 2b bd
       -0.023827385 -0.080033876 -0.006951866 -0.04193634
0000b0 68 4a bd bc 42 6c 37 3c e7 f1 49 bc 12 30 0b bd
       -0.023106769 0.011195244 -0.01232574 -0.03398139
0000c0 f3 1d 96 3b cb 25 84 3c ec f5 17 bd 98 13 27 3d
       0.004581207 0.016131302 -0.037099764 0.04079017
0000d0 0a 7c 67 bd c3 a3 b4 3c ce 97 9f bc 46 f0 0b 3d
       -0.056514777 0.022050744 -0.019481566 0.03416469
0000e0 98 8e 92 3c 07 de 26 bd b5 bb 83 3a 48 39 f0 3c
       0.01789026 -0.040739086 0.0010050448 0.029324189
0000f0 77 08 83 bd d6 94 94 3c dd e7 35 3d 84 42 cd bc
       -0.06398099 0.018137377 0.044410575 -0.025056131
000100 2a 62 6e bc 72 65 91 bd 22 78 6c 3c 52 a5 d5 bd
       -0.014549771 -0.07099427 0.014432939 -0.10431923
000110 4a 31 6e bd 8a 57 27 3d 90 13 f5 bc 5a c2 fc 3c
       -0.058152474 0.040854968 -0.029916555 0.030854393
000120 fb fc cf bb ef 65 7b bd 7a 50 c2 bc 68 85 eb 3c
       -0.0063472963 -0.06137651 -0.023720015 0.028750136
000130 40 f2 44 3d 6c bb 9b 3c e9 8c 17 bc c0 7c db 3c
       0.04808259 0.019010268 -0.009249904 0.026792884
000140 35 35 ae ba 2e a6 94 3c 6f 81 9d 3a 36 2d 28 bd
       -0.0013291003 0.018145647 0.0012016724 -0.04105874
000150 b6 db 91 bb 1c 1a d6 3c aa 81 ae 3c cc b2 d1 bc
       -0.0044512404 0.026135497 0.021302063 -0.025597952
000160 ac 8c 25 bd 60 72 cf 3c d4 96 3c 3c e9 8d 38 bc
       -0.04041736 0.025323093 0.01151057 -0.011264303
000170 23 fd 01 bc 4a 46 5c 3c 52 24 97 bd d9 30 45 bd
       -0.007933888 0.013444493 -0.073799744 -0.048142288
000180 c5 41 7e bb d4 7a 76 bd 85 b3 d4 bc 29 97 8d bd
       -0.0038796526 -0.06017573 -0.025964508 -0.06913597
000190 6d 34 07 bd aa 1e e8 bc 43 25 95 bd 4f e2 03 3c
       -0.03300898 -0.028334934 -0.07282498 0.008049562
0001a0 f4 ed 75 bd 0e cc 24 bd 47 24 95 bb d5 4c 4a bd
       -0.060041383 -0.040233664 -0.0045514437 -0.04938968
0001b0 06 3c 10 bd 4f d8 05 bc 6c f3 9f 3b 29 51 6e bc
       -0.035213493 -0.008169248 0.004881313 -0.014545717
0001c0 c6 d1 0f bd 3d bd 41 bd 3b ee 90 3b fe 2a b1 bc
       -0.035112165 -0.047299612 0.0044229305 -0.021626946
0001d0 a3 be 9d 3c b2 42 05 bd bd 85 91 3c 86 4f 29 bd
       0.019255942 -0.03253431 0.017763967 -0.041335605
0001e0 25 6b 69 bd 35 6b a0 3c b3 38 35 3d f8 c8 f0 3c
       -0.056986947 0.01958237 0.044243526 0.029392704
0001f0 59 7f 05 3d 20 0f a6 3b 34 ac 03 bd 74 36 9a bb
       0.03259215 0.005067721 -0.032146648 -0.0047061983
000200 aa 2e d8 3c 4a 3b 6e bd 19 b2 e8 bb 6b 64 5d bd
       0.026389439 -0.05816201 -0.007101309 -0.054050844
000210 c1 e0 1c bd 6a 8d da bb 76 cb 38 bd 0a 75 15 bd
       -0.03830028 -0.00666969 -0.04511591 -0.03648857
000220 9f 16 cc bc 80 90 f4 3c 1b 4a aa 3c e6 30 e0 bc
       -0.02491313 0.02985406 0.02078729 -0.027367067
000230 06 05 bb 3c ec a3 90 bc b9 04 4e 3c 76 ec cf bc
       0.022829544 -0.017656289 0.012574368 -0.025381308
000240 19 c8 75 3c 54 88 29 bd 46 c6 27 bd db b0 03 3d
       0.01500132 -0.04138978 -0.040960573 0.032151084
000250 54 ed b9 bc bc 97 68 bb 5f b4 53 bd d6 6b 2f 3d
       -0.022696175 -0.0035490831 -0.051685687 0.04282745
000260 51 5d 3b bd d5 0e 2b ba e4 7a 34 bd fb de dc 3c
       -0.04574329 -0.00065253425 -0.04406251 0.026961794
000270 60 6b a0 bd 91 c5 3f bd 8d 29 78 bb be ad fb 3c
       -0.0783298 -0.046819273 -0.0037866563 0.030722495
000280 82 60 0a 3d 75 90 fb bc 68 b7 9f bc 5c e5 84 bd
       0.033783443 -0.03070853 -0.019496635 -0.06489059
000290 56 f8 c0 bc 92 55 cb 3c b4 70 87 bd a5 09 d1 bd
       -0.023555916 0.024821077 -0.06613293 -0.10206918
0002a0 3e f3 d5 3c d8 4f 9b 3c 04 ef ca bc 7f cb 2c 37
       0.026116963 0.01895897 -0.024772175 1.0299379e-05
0002b0 5d 01 da 3c cf 04 68 bd 78 23 42 bd 4e 16 a5 3c
       0.026611978 -0.05664521 -0.047397107 0.020152237
0002c0 71 8b a7 3b 8e 45 96 bd 88 9d 3a bd 85 37 32 bd
       0.0051130583 -0.07337485 -0.04556039 -0.04350998
0002d0 28 24 6a bd ba 9f 52 bc 1a d2 92 bc 71 ff c7 bc
       -0.057163388 -0.012855465 -0.01792245 -0.024413796
0002e0 0b 39 65 bd b6 9d f0 bc 08 d7 68 3b 8a 1b 55 3c
       -0.055962604 -0.029372077 0.003552856 0.013007054
0002f0 e4 ab 38 bc fe b1 20 bd 96 3d 4d bb e7 32 02 bd
       -0.011271451 -0.039232247 -0.0031317226 -0.031786826
000300 7c b5 03 3d 98 ae 96 3c cc 0a 64 bc 01 e3 31 3d
       0.0321555 0.0183938 -0.01391859 0.04342938
000310 29 72 73 3b b0 e4 73 3c 9d 5b 91 bb 92 42 6b bd
       0.0037146902 0.014886066 -0.00443597 -0.057436533
000320 0f 3e 78 3c c2 f3 2d 3d 37 0a 4f bc 75 8b 3a bd
       0.015151515 0.042468794 -0.012636713 -0.045543153
000330 d1 8c 13 bc c5 d5 88 bd 94 5f d2 bc bd f0 71 bd
       -0.009005741 -0.06681398 -0.02568034 -0.059067477
000340 6d 40 54 bd de 74 2c 3d e7 20 34 3c 0c f1 3e bd
       -0.051819254 0.04210364 0.010994173 -0.0466166
000350 37 dd 4a bc b9 cd f4 bc 06 52 f7 3c 39 f1 f7 bc
       -0.012381843 -0.029883252 0.030190479 -0.030266391
000360 dd f7 af bc 52 49 6b bd 7e ce 37 bc 90 58 bd 3c
       -0.021480495 -0.05744297 -0.011218665 0.023113519
000370 9d 3b 5b 3c e1 4e 05 3c 5b 35 4e 3b 15 fc a0 bc
       0.013380912 0.008136482 0.0031464908 -0.019651452
000380 ed 68 1a bd 93 e6 35 3d 96 4b f8 3c 64 75 2a 3c
       -0.03769772 0.044409346 0.03030948 0.010403965
000390 7f 13 63 bd 84 e7 54 bd 87 15 e8 bb 02 15 bd bc
       -0.055438515 -0.051978603 -0.0070826444 -0.023081306
0003a0 b4 56 a1 bc 44 9c f6 3b 17 39 21 bd 31 59 13 bc
       -0.019694664 0.0075259525 -0.039361086 -0.008993433
0003b0 1e 9a cf 3c 0e e5 23 3d 96 eb cb bc 31 9e 40 bd
       0.025342043 0.040013365 -0.02489261 -0.047025863
0003c0 ba be 01 3d a6 ae 3a bd ae 7c 4f bd 60 f9 1e bd
       0.03167603 -0.045576714 -0.050656013 -0.03881204
0003d0 9b 7a 49 bd 96 52 d3 3b 3c d3 60 bd 15 ca 28 3b
       -0.04918919 0.006449054 -0.05488895 0.0025755216
0003e0 09 d5 1e bd 2a f7 3d 3c 09 ca 9e 3c ad bf 1b bd
       -0.038777385 0.011594573 0.019383447 -0.038024593
0003f0 87 9a 8d 3b 87 53 87 3c 82 cf 2b 3c af 68 78 bd
       0.0043213996 0.016519321 0.010486485 -0.06064671

layer2.2.bias f4 [128]
000000 8e e3 1b 3c 51 13 93 3c d7 88 ee 3d 05 25 0b be
       0.0095147025 0.017953547 0.11647194 -0.1358834
000010 ef 0f f1 bd cb 51 16 be 03 21 1b bd e1 88 db bc
       -0.11770617 -0.14679639 -0.03787328 -0.026798667
000020 64 b4 0b be 61 f0 e2 bd f3 cf 9d 3e 79 a9 18 3e
       -0.13643032 -0.11081005 0.30822715 0.14908399
000030 94 6c fb bc 01 a2 ce bc 26 d6 7d bd 9c 87 90 3d
       -0.030691423 -0.025223734 -0.061971806 0.070571154
000040 1b 6a a3 3d d2 1f d2 3c 31 41 c2 3d 71 0d 1b be
       0.079792224 0.025649939 0.094850905 -0.15141846
000050 09 65 a3 3c 06 02 91 3d 6a 7f 40 bc 21 9a 85 be
       0.019945638 0.07080464 -0.011749128 -0.26094154
000060 9b 0d 1a be fc b8 ca 3d 86 96 a0 3d 2a c2 1c be
       -0.15044253 0.09898564 0.0784121 -0.15308443
000070 c0 34 28 3e 58 02 a6 3d 17 c3 2a be 2d 06 83 bd
       0.16426373 0.08105916 -0.16675983 -0.06397662
000080 0a 28 9f 3c 01 b4 85 bd 89 cf bd 3d 49 8c 21 bd
       0.019428272 -0.06528474 0.092681 -0.039440427
000090 cb ec 7c 3e ea 59 d4 3d 60 95 1c 3d 90 ac 75 3c
       0.24699704 0.10368712 0.038228393 0.014994755
0000a0 3c 11 09 3d 04 8b 55 3c a5 5f a4 bd 21 12 3c 3d
       0.0334637 0.013033632 -0.08026055 0.045915727
0000b0 50 e9 9f bd 88 3c 8d 3e 17 c7 ea bd 8a 5f 84 bd
       -0.07808173 0.27585244 -0.114637546 -0.06463535
0000c0 27 de 39 3d fd ea 71 3e 47 28 06 bd d2 73 fb bd
       0.045377877 0.23624797 -0.032753255 -0.1227795
0000d0 2b 5f 15 be ff 37 ce bb 9c 25 32 be 5e 47 7c be
       -0.14587085 -0.0062932963 -0.1739716 -0.246366
0000e0 c5 9d 22 be ab 56 08 be 10 1c bd 3d 8a 57 22 3e
       -0.15880497 -0.13314311 0.09233868 0.15853706
0000f0 33 03 a4 bc f9 41 02 be 22 6e f7 bd 64 91 85 bd
       -0.020021057 -0.12720479 -0.12081553 -0.06521872
000100 d3 52 4c be 46 3c ac bd 46 9e 39 3e 2e 43 a7 bd
       -0.1995347 -0.08409934 0.18126783 -0.081671104
000110 26 47 7c bd 22 b9 ba 3e 00 e6 4d 3d e7 f8 1f be
       -0.06159129 0.3646937 0.050268173 -0.15622292
000120 cb 6f 07 3e da 7e 05 be 25 c9 a4 bc 84 a2 2d 3d
       0.1322624 -0.13036671 -0.020115444 0.042391315
000130 aa f4 07 3d 7d 36 52 bd 35 06 a1 bd 91 80 b6 bd
       0.033192314 -0.051321495 -0.07862512 -0.08911241
000140 78 57 46 be f3 bb ae 3e 19 e1 f3 bd 14 7d ef 3d
       -0.19369304 0.3412777 -0.11908168 0.11693779
000150 d2 a1 ff bd bd d6 1f bd ea 10 9a 3e 61 3a 0f be
       -0.12482037 -0.03902315 0.3009103 -0.13987114
000160 3e 67 a2 3d 05 bf 81 bd ec 8f 27 bc 7f 19 96 3d
       0.07929848 -0.06335262 -0.010227185 0.07329082
000170 a8 92 05 be 30 ae bf bd b3 03 82 bd 18 9c 37 3e
       -0.13044226 -0.093593955 -0.06348362 0.17930639
000180 2d 30 00 be ef bd ba bd cd 4d 7f bd d2 b8 b5 bd
       -0.12518378 -0.09118258 -0.062330056 -0.08873142
000190 d6 48 54 bd d4 77 a9 bb 97 5b e2 3b fb 68 f8 bd
       -0.051827274 -0.0051717553 0.006907891 -0.121293984
0001a0 d0 a5 31 be 0d 09 7e 3d f7 bb f5 3b da 8f 84 bd
       -0.17348409 0.06202035 0.007499214 -0.0647275
0001b0 b7 5c b1 bd e6 12 a3 bd d6 49 bb bd 8b 3b 71 3d
       -0.08660262 -0.07962589 -0.091449425 0.058894675
0001c0 71 fc 15 be 1c 83 fc bd 4e f2 78 3e cb cf 91 3e
       -0.1464708 -0.12329695 0.24311182 0.28478846
0001d0 65 24 46 bd 73 f9 03 be fd db 24 be 17 ff bf 3c
       -0.048374552 -0.12888126 -0.16099544 0.023437066
0001e0 e8 c0 b6 bd 07 4d 08 3e b3 7b f1 3d a3 27 45 bd
       -0.08923513 0.13310634 0.11791172 -0.048133504
0001f0 32 62 0c 3d a4 a6 8b 3d 9b 99 dd 3d 0c d3 f7 bc
       0.034273334 0.068188936 0.108203135 -0.030252002

fc.2.weight f4 [14, 128]
000000 45 21 6a 3a 5c 59 6b 3d b8 0f 25 bd a4 a6 8c be
       0.0008931349 0.057458267 -0.040298194 -0.27470887
000010 1f 33 a6 3e d5 b4 65 be 5c 60 8c be 73 a6 0e 3c
       0.32460877 -0.22432263 -0.27417266 0.008706677
000020 d7 a5 7e 3e 74 18 43 3e 60 5a 7f bd 7d 86 27 bf
       0.2486795 0.19052297 -0.062342048 -0.6543959
000030 dd 40 65 be 06 54 5c 3c f2 95 8f 3e 2f 92 92 bd
       -0.22388025 0.013447767 0.28044087 -0.071567886
000040 67 1f 64 3d d1 6c 4e 3e ee bc ec be 3e 19 34 be
       0.05569401 0.20158698 -0.46237892 -0.17587754
000050 10 fc 84 3d e8 59 8e be 1d 66 ae 3d 76 4d 64 3c
       0.064933896 -0.27802968 0.0851557 0.013934484
000060 80 67 8d bd 5e ca 98 bd b1 3a 33 be 48 83 40 bd
       -0.06904507 -0.074604735 -0.17502858 -0.0470002
000070 dc 16 c0 3d 69 72 88 be e0 38 50 bd 4e 3c 43 3e
       0.0937936 -0.26649788 -0.05083549 0.19065973
000080 d9 30 7c 3c df f3 d5 bc 19 64 f3 3d 87 25 d9 bc
       0.015392506 -0.026117263 0.118843265 -0.026507152
000090 89 11 5a 3d 69 79 80 3d db 4a ef 3c c6 3c 28 3d
       0.05323938 0.06273157 0.029210499 0.041073583
0000a0 96 6d 07 bf 55 c7 0f be 21 83 b0 3d 54 6c 1f be
       -0.5290159 -0.14040883 0.08618761 -0.15568668
0000b0 2e 55 31 be c9 f6 ae be 97 e3 fa bc 0c 6b 69 bd
       -0.1731765 -0.34172657 -0.030626101 -0.056986853
0000c0 1d 7a 21 3e 24 a8 1d 3d a2 60 0e 3e 6a 0f f2 bd
       0.15769239 0.03849043 0.1390405 -0.11819346
0000d0 90 1b 61 3d 62 d1 4f bd 8a 86 e4 bd 30 de 7e 3e
       0.054957926 -0.050736792 -0.11158474 0.24889445
0000e0 01 d9 4e be 41 2b d0 be 8b c1 a2 3e b1 f9 20 be
       -0.20199968 -0.40658 0.31788287 -0.1572025
0000f0 e3 25 22 3d db b4 80 3e f2 73 a4 3e b8 6a 16 bf
       0.039586913 0.25137982 0.3211971 -0.5875659
000100 06 ba 3c 3d 05 82 60 3d b0 4a 17 3e d2 c3 48 3c
       0.046075843 0.054811496 0.14774585 0.012253718
000110 73 00 dc 3d 51 28 35 bc 80 36 1e be 1c 24 a3 3d
       0.10742273 -0.011056975 -0.15450478 0.07965872
000120 a7 ac 67 bc 2f 86 d4 bc bc c9 f3 be f0 8c 23 3d
       -0.014140285 -0.02594289 -0.4761485 0.03992933
000130 c4 61 78 bd 9b 7a b4 3d 19 c8 d7 bd e3 64 2b 3e
       -0.06064011 0.08812448 -0.105362125 0.16737704
000140 53 4c 14 3c b5 e9 51 3c bf 63 29 bc 93 f8 69 bf
       0.0090514 0.012812068 -0.010338723 -0.9139492
000150 2b 21 c6 3d 58 d5 b2 3d 60 3e 04 3e d1 5c fd 3e
       0.09674295 0.08732098 0.12914419 0.49484876
000160 0b 36 57 bf b1 3a 8f be 33 f5 8d be 94 5c 55 3c
       -0.8406684 -0.27974465 -0.27726135 0.013022561
000170 ab 22 ae 3d 52 43 a6 3d 07 94 38 3e 9d 21 6d be
       0.08502706 0.08118309 0.18025218 -0.23157354
000180 09 cc c3 3e eb 42 87 be 34 cc bb 3e 92 a1 77 3c
       0.38241604 -0.26418242 0.36679232 0.015114205
000190 c3 84 a8 3d 73 d2 b3 3c 0c cd a3 3e 8f 09 24 3e
       0.08228447 0.021950936 0.31992376 0.16019271
0001a0 fe 97 12 be 55 65 d8 bd 12 3b 4b 3d 73 bb 6c be
       -0.14315793 -0.105662026 0.04961688 -0.23118381
0001b0 6e d5 7c 3e 33 d1 49 bd b9 dd af be a3 5d 29 bf
       0.24690792 -0.049271774 -0.34348848 -0.66158503
0001c0 dc 0e d0 bc b0 ed 4d 3e 95 0a 82 3e 1e 71 4e be
       -0.02539771 0.20110202 0.25398698 -0.20160338
0001d0 36 ca 05 3c 43 da 83 bd 4a ba 9d be 57 65 3f 3e
       0.008165887 -0.064381145 -0.3080619 0.18691002
0001e0 75 29 07 be 2f ee 5b bc 49 23 1a 3d 06 15 3e be
       -0.13199408 -0.013423487 0.037631307 -0.18562707
0001f0 2f dc d0 bd 67 6b 37 be 94 b6 27 3e 09 f9 24 be
       -0.10198247 -0.17912064 0.16378242 -0.16110624
000200 24 ed d0 3c aa 8b 96 be 87 0a 30 3e 85 9f 98 be
       0.025503702 -0.2940343 0.17191516 -0.29809204
000210 63 0b eb bd 67 82 6a 3e 4b e7 de 3c 31 67 02 bc
       -0.11476781 0.22901307 0.027209898 -0.007959173
000220 19 e3 98 be 17 be 4b 3d d0 1c b9 bd b7 80 e5 be
       -0.29860762 0.04974183 -0.09038699 -0.44824764
000230 eb 20 83 be 22 01 17 3e 46 2c 1b bd bb fc 80 3e
       -0.25611052 0.14746526 -0.03788402 0.25192818
000240 df 82 af bd cd 89 44 bf 93 57 4a 3e ab a3 19 bf
       -0.085698836 -0.7677277 0.1975997 -0.6001536
000250 22 b5 b2 3d 8b 64 e7 3d 6e 24 45 be e8 59 ca 3d
       0.087259546 0.11298474 -0.19252178 0.098804295
000260 f7 ae bb bd 9f 69 d2 3d dd a5 06 3e c9 bf 97 be
       -0.09164231 0.10274052 0.1314921 -0.29638508
000270 4d df b2 bd 74 1a 16 3d 95 46 ae be bf aa a3 3c
       -0.087339975 0.03664632 -0.34038225 0.019978879
000280 b7 4a 61 3e ca 4d f6 3d 0f 80 7b 3e 4b 68 5e be
       0.22001158 0.12026556 0.24560569 -0.21719472
000290 71 cb 52 bd 3c c6 d4 3d c8 65 91 be ac f2 7a be
       -0.051463548 0.10389373 -0.28397965 -0.24506634
0002a0 85 09 4e be 43 69 12 3f 82 b8 14 3d 51 2e f1 be
       -0.20120819 0.57191867 0.036308773 -0.4710565
0002b0 01 4e 1d 3d 09 a9 4e 3e c8 64 b5 3d 0c 64 1a 3b
       0.03840447 0.2018167 0.08857113 0.0023558168
0002c0 11 d8 15 bd 10 12 ea 3c 74 48 dc 3e 88 96 02 bf
       -0.03658301 0.028573066 0.43024027 -0.5101094
0002d0 6e f8 84 bd a2 ec 8d 3d eb a4 83 bd cb 32 b3 3d
       -0.06492697 0.069299 -0.0642794 0.08749922
0002e0 2a a7 1d 3e 5f 4b 1b bf 53 68 d8 3e f3 e3 b4 3e
       0.153958 -0.6066188 0.42267093 0.3533016
0002f0 63 42 8b bd c5 64 6f 3e 7b ee 84 be 91 d6 2a 3e
       -0.06799772 0.23378284 -0.25963196 0.16683413
000300 81 95 8f bd e9 57 c2 be c7 1d 69 3b 61 a3 33 bb
       -0.070109375 -0.37957695 0.0035570727 -0.0027410614
000310 81 7e ce be 78 63 41 be 6d be 03 bd 5d b2 42 3d
       -0.4033089 -0.188856 -0.032164026 0.04753338
000320 7b f8 07 3e de 5b 3d bd 29 37 ef 3d cc 48 25 be
       0.13278382 -0.04623019 0.11680443 -0.16141051
000330 b7 c4 52 3c 07 a7 0a bf ba 1b ff bd cb 8d 5a be
       0.012864283 -0.54161114 -0.1245646 -0.21343152
000340 28 b3 a5 3d 60 48 40 be 6c 35 4f be 40 76 61 be
       0.08090812 -0.18777609 -0.20235223 -0.22017765
000350 fd bc 0e be 68 1c da b8 0f 8b df bd 1a 63 aa be
       -0.13939281 -0.00010400341 -0.10915195 -0.33278733
000360 fc 42 90 bd 09 83 9a bd 73 a4 c1 be b8 8f 2b be
       -0.07044026 -0.07544524 -0.37820777 -0.16754043
000370 1d 9f 1a bf 85 ec ba be 82 02 1a 3b b8 a0 85 3d
       -0.6039904 -0.36508575 0.002350003 0.06524795
000380 97 83 13 bd 90 76 cb 3d c8 34 b9 bd 88 39 61 bd
       -0.036014166 0.099347234 -0.0904327 -0.054986507
000390 21 44 e0 3e 6b 78 a2 bd 0f 24 94 3c c9 55 dd 3d
       0.43801978 -0.07933124 0.0180836 0.10807378
0003a0 62 c3 0e bf 36 57 8f be bc f1 0e be 12 27 ca 3c
       -0.5576688 -0.27996224 -0.13959402 0.024676833
0003b0 a6 d0 19 be 67 74 10 bf 61 ed b2 be 99 50 82 bf
       -0.15021 -0.56427616 -0.3494673 -1.0180846
0003c0 36 ca b3 bd f8 ae 0f bf 95 9a 34 3c 74 66 00 3e
       -0.08778803 -0.56126356 0.011023183 0.12539083
0003d0 9e e0 42 3d 0a cc 15 3e 35 7a 01 bf bf be 62 3e
       0.047577493 0.14628616 -0.505771 0.22143076
0003e0 b0 93 95 bc af 4b b0 3d 4e 6d 45 be 7d 4d 8f be
       -0.0182589 0.086081855 -0.19279978 -0.27988806
0003f0 f0 fa 82 3d 9c 7e 99 bc 03 70 a8 3c 69 13 cd 3e
       0.06395519 -0.01873713 0.020561224 0.4005387

fc.2.bias f4 [14]
000000 a6 f6 ac bc c6 5b f9 3d e0 9f 19 bd 5a af 99 3c
       -0.021113705 0.121757075 -0.037505984 0.018760372
000010 a6 f7 04 bd 89 44 12 be 10 59 ab bd 5e bc 5f bd
       -0.03246274 -0.14283957 -0.08366597 -0.054623
000020 25 6e 37 3e d8 77 18 be ae 37 9b be e2 5f 4c be
       0.1791311 -0.14889467 -0.30315918 -0.19958451
000030 ab 95 1a 3e 11 6b 69 3e
       0.15096156 0.22794749
