final_cnn2d_model.pth (torch, 383864 bytes, 8 tensors)

conv_layers.0.weight f4 [32, 3, 3, 3]
00000000: 7565 b1bc e2f7 163e 2864 6b3d beed 183e
00000010: 5729 c4bd 16b9 e13d 82d1 0b3e 7ea4 793e
00000020: af94 293e ad02 1c3e 06ca d3bd 7a1b 6c3e
00000030: 26aa 213d 1bdb 123e ea01 1a3e 4692 d43d
00000040: 2dc4 003e 3806 5a3e 927d 89be 5fe8 98bd
00000050: 60a0 3fbe 01f3 ccbc 4b3b 88be 45e7 9abe
00000060: 9b6f 99be 0a23 57be eb78 4dbe 7385 aebe
00000070: 4462 613c 2469 96be 05ae 29be 0c3e debd
00000080: 1452 f93c a62c 9dbe 10c1 95be 85f2 7cbe
00000090: 85a3 ac3d 7d3b d2bd b666 183d b05c 86be
000000a0: c36a f93d 8857 c5ba 8e11 eebd e0d8 d3bd
000000b0: 0509 943b 9d9a 02be 114f 523e 8bae f9bd
000000c0: 0568 673e 9c1e cbbc cf94 7a3e aaa2 d5bd
000000d0: 7220 323e c6c1 ed3c e8ab bdbd 6490 aebd
000000e0: b3ef 93be cfe8 76bd 660a b9bd d3e5 3dbe
000000f0: 12eb 68bc 3f58 ed3d 22a9 2a3d 377f a2bd
00000100: 459e db3b 9ac1 acbd 3780 b33d cab9 a8bd
00000110: c33f e43d 2386 273e 1a7e 243e 408a 0f3c
00000120: 91ba d03d f19a 1f3e c15f 1fbe 8423 143c
00000130: 9608 613e 9486 ad3d 3cdc 693e 13a0 623e
00000140: 37aa 4d3e c54c cbbd a2ed 68be 12c2 7e3d
00000150: 6a91 69be 8c21 0a3d 9a96 3ebe 1345 5ebe
00000160: 795e a0be 0310 073d 5e26 09bd e740 3dbd
00000170: 3007 633d 702d 8dbe 4198 68be ed70 69bc
00000180: f925 0ebe 78fb 2dbe 1524 76be 1703 543e
00000190: ba49 d83d b0f0 763e 9b49 843d 4346 8b3e
000001a0: 880e 2a3e d799 663e c4fc 85bd 280b 713e
000001b0: 1c83 8cbf 7264 41bf 797f 54bf 8db5 5abf
000001c0: 76fa 3fbf 072d fcbe 6e52 fdbe 228e a9be
000001d0: a2de afbe bf51 e9be 18a5 23bf 1086 b8be
000001e0: 7869 39bf da05 a6be 07a9 c1be b38a 00bf
000001f0: dbb7 babe 43ec fbbd d08e 2dbe df2e 9a3d
00000200: 7d26 6e3d c96b 35be 1b06 a13e aa59 9a3d
00000210: 5f95 4f3e eba1 223f 0e66 ca3e 9414 69bb
00000220: 04b9 eabd 1cf1 793e e1cf 78bd d8d3 dd3d
00000230: 61b1 0c3d 6ee7 0d3e c070 ef3d 067a 883c
00000240: 6f74 19be 69d0 6a3e 6bd3 703e c186 2b3e
00000250: 7452 b6bd 6f11 dbbd 2f06 22bd 6208 b73d
00000260: 42c1 4c3c bc12 9dbe 3de5 67be 0e06 c4bc
00000270: f8d2 5fbe 6664 6abe cf2c 74be 65c5 69be
00000280: a827 b4be a559 bfba 2cb7 bdbd 871f 9dbd
00000290: 6a75 14be 6d01 7c3d 9302 103e cc38 2c3e
000002a0: 6e19 413e f681 62bd ebdd 9dbd 23ba 31bc
000002b0: 78ff 7bbe a4fb 34be 5d08 30be 191f 92bd
000002c0: c9c3 02be 6791 b5bd 634e e03d 1bc7 2e3e
000002d0: 5fa7 de3d 0453 363d c009 143e 525d 5b3d
000002e0: 49ae 163e 9ffd 813d f663 1c3d eca4 823e
000002f0: e436 933e 8232 813e 50f9 5c3e 2bfa 61be
00000300: 1e60 853c 63ce fb3d 4717 a9be 3150 7d3e
00000310: 3e53 4c3c df67 b0be 3ad8 d4bc d655 033d
00000320: 4877 41be 9ab6 2d3d a37d b73d 52ca 8bbd
00000330: 46b5 953e 7a16 fd3d b136 24be ce9f 443d
00000340: 4a47 8a3d c39a b1be aa4d 213e 06ef 9bbd
00000350: 4a1a 03be bdbb 963e 7e21 87bd 3254 20be
00000360: 35f9 e3bd e01f 96be eb61 e0bd f921 10bc
00000370: 611c b6bd 988a a2be 6a55 5bbe be7f a4be
00000380: b303 81be 2acd 893d 88d1 25bd 7bbc 5b3e
00000390: 21f0 de3d 2f3a 8a3e 1aed 5e3e 74d6 223e
000003a0: 77ea 8a3e cb98 893d 96d2 e53c 9ce8 0ebe
000003b0: af04 13be 732a b93d 3ec5 833d 837d b93d
000003c0: 2fc3 19be 74e5 37be 2ad8 c83c e18c 903d
000003d0: a649 f63d 4d3c 203e d90f 803b 43d7 203e
000003e0: 0d7a 773e 2983 0f3e 541d 733e e85a 833e
000003f0: 8ac8 40bd 0b6b 13be 5dac 6fbe f79a 443a
-0.021654824 0.14742997 0.057468563 0.14934441 -0.095781974 0.110216305 0.1365414 0.24379155
0.16560625 0.15235396 -0.10341267 0.23057356 0.039468907 0.14341395 0.15039793 0.10379462
0.12574835 0.21291435 -0.26853615 -0.07466196 -0.18713522 -0.025018217 -0.26607737 -0.3025457
-0.2996796 -0.2100946 -0.20065658 -0.3408619 0.0137563385 -0.2937709 -0.1657029 -0.10851678
0.030434646 -0.30698127 -0.29248857 -0.24701889 0.084296264 -0.10265253 0.037207328 -0.2624259
0.12178566 -0.0015055994 -0.11624442 -0.103441 0.004517677 -0.12754293 0.20537974 -0.121914946
0.22598274 -0.02479487 0.24470828 -0.10431416 0.1739519 0.029023062 -0.09261304 -0.08523634
-0.28893813 -0.060280617 -0.090351865 -0.18544702 -0.014216201 0.11589097 0.041665204 -0.079344206
0.006702217 -0.08435364 0.087646894 -0.082385615 0.11144974 0.16359763 0.16063729 0.008760989
0.10191835 0.15586449 -0.15563871 0.009041671 0.21975932 0.08472934 0.22837919 0.22131376
0.20084463 -0.09926752 -0.227469 0.0621968 -0.22809377 0.0337234 -0.18612137 -0.21706037
-0.31322077 0.032974254 -0.033483855 -0.046204474 0.055426776 -0.2757373 -0.2271433 -0.014248115
-0.13881673 -0.16990459 -0.24037202 0.20704304 0.10560937 0.24115252 0.06459352 0.27202043
0.16607106 0.22519623 -0.06542352 0.23539412 -1.0977511 -0.7554389 -0.8300701 -0.85433275
-0.7499155 -0.49253103 -0.4947695 -0.3311625 -0.34349543 -0.4557018 -0.6392379 -0.36039782
-0.7242656 -0.3242634 -0.3782427 -0.5021164 -0.36468396 -0.12300923 -0.1694901 0.07528471
0.058142174 -0.17716898 0.3144997 0.07536633 0.20271824 0.6352832 0.39530987 -0.0035565244
-0.1146107 0.24408382 -0.060745124 0.108314216 0.03434885 0.13857815 0.11691427 0.016659748
-0.14985822 0.22931065 0.2351815 0.16750623 -0.089024454 -0.106966846 -0.03955668 0.08937146
0.012497248 -0.30678356 -0.22646041 -0.023928668 -0.21857822 -0.22889861 -0.23845218 -0.22829206
-0.35186505 -0.001459886 -0.09263453 -0.07672029 -0.14497915 0.061524797 0.14063482 0.16818541
0.18857357 -0.05529972 -0.07708343 -0.010847601 -0.24609172 -0.17674118 -0.1719069 -0.07134838
-0.12769999 -0.08865624 0.10952451 0.1706814 0.10871767 0.044512764 0.14456844 0.053555794
0.14714922 0.063472025 0.038181268 0.2551645 0.28752816 0.25233847 0.2157948 -0.22068088
0.016281184 0.122952245 -0.33025572 0.24737622 0.012471018 -0.34454247 -0.025982011 0.03206428
-0.18893158 0.04241047 0.0895951 -0.06825699 0.29239863 0.12357803 -0.16036488 0.048003964
0.067518786 -0.34688386 0.15752283 -0.076139495 -0.12802997 0.29440108 -0.06598185 -0.15657118
-0.11131517 -0.29321194 -0.10956176 -0.008797162 -0.088921316 -0.31746364 -0.21419302 -0.3212871
-0.25198135 0.06728585 -0.040483028 0.21458618 0.10885645 0.26997516 0.21770135 0.1590212
0.27132007 0.06718596 0.028054517 -0.13955921 -0.14357255 0.090413 0.06434105 0.090571426
-0.15015863 -0.17958623 0.024517138 0.070581205 0.12025766 0.15648003 0.003908139 0.15707116
0.24167652 0.14014877 0.23741657 0.25655293 -0.04706625 -0.14396302 -0.23405595 0.0007499898

conv_layers.0.bias f4 [32]
00000000: fcb9 c8bc 8a23 613e b626 80be 0620 2e3e
00000010: 5548 823e 5bad f03d 0dca febd d173 d0bd
00000020: a208 053e 8199 4a3e 608f c83d 98c4 30be
00000030: de30 303e d2f2 a13d 574d e9bd aae7 f0bd
00000040: 735c 5b3e 20ca 9abd ce48 dc3d 79d2 143e
00000050: aff9 debd d623 0d3d 1712 7aba ebb7 3cbe
00000060: 9508 863e 5161 443a 576a 95be 6b13 2e3e
00000070: d1d5 823c 61fd cabd 8fe5 cf3d 5e7c 6fbc
-0.024502747 0.21986213 -0.25029534 0.17004403 0.2544581 0.11751815 -0.12440882 -0.1017834
0.12991574 0.1978512 0.097929716 -0.17262495 0.17206141 0.079076424 -0.113917045 -0.117629364
0.21421985 -0.075580835 0.10756074 0.14533414 -0.10887467 0.034458004 -0.0009539439 -0.18429534
0.26178423 0.0007491308 -0.29182693 0.16999595 0.015971096 -0.099116094 0.10151207 -0.014617054

conv_layers.3.weight f4 [64, 32, 3, 3]
00000000: 1ae9 be3d 93b2 973d 0e46 f83c f7be 023c
00000010: 57f5 623d 72fa 263d cd60 c83c c10f 873d
00000020: e112 403d 72aa 9c3d e0d2 1e3d 80a9 423d
00000030: 282d 933d 55e1 9f3b 9b8c 663d 1503 273e
00000040: e193 f93d 93af 123e a508 0e3d 6f54 0c3c
00000050: 77bf 663d c24c 823d a596 0c3d 5e04 4dbb
00000060: db90 883d 0efe c53a 11cd 833d 72c9 0c3d
00000070: 6c63 f63a 0a2e b5bd 46a4 3e3d 52ef 09bc
00000080: beb5 f5bc 260e a83d fe57 7a3d 5436 a43b
00000090: c544 4dbe d204 90be e4ec 0fbe c189 1abe
000000a0: e83f 4dbe 1ffb 17be c3cf 93bd 216e 41be
000000b0: 20fb 82bd e369 36be 14fe 19be d04c 01be
000000c0: 72cc e5bd 54d7 90bd 5c07 dfbd 25cf 93bd
000000d0: 166e a43b c1ba 56bc b3f5 df3d d73c 903d
000000e0: 9310 b03d 212d 833d 17b6 163d d2f6 fb3c
000000f0: d2cd fd3d 3028 2c3e 6c55 ab3d e938 cabe
00000100: 2c16 0bbf b11d 2fbf 9ba4 0cbf 674f 11bf
00000110: 6844 09bf 2b91 68be e919 1bbe ad52 dcbd
00000120: 3277 97bd 3ffe 65bd 072f 86bd 5ae8 82bd
00000130: d029 fcbd 3db9 09bd 44a0 033c 1cbc 97bc
00000140: ed0a ab3d 4f58 123d 9a61 bdbc 138f bb3c
00000150: d55b 85bb 20a4 6a3d f88d 503c 3497 183d
00000160: 216d ac3c 943b dd3d fb42 cebc 0a05 aa3a
00000170: 846b ae3d bf31 51bc 02c0 9fb9 ea1d 7cbc
00000180: 7629 d43d 4826 fe3d 01cd 213d 31c6 663d
00000190: f8ca d9bb 5c35 623c f2d1 6dbc d00c eebb
000001a0: 12e3 633d 6933 6d3d e20a b93c 4877 65bc
000001b0: 5f88 ad3b 15bf c8bd 1b8e a6bc 11dd 2b3c
000001c0: 8277 52bc 3113 fabc 5776 b63c 201c 5c3d
000001d0: 1419 f23d 35a8 c3bd 9d93 46bd c4fa 2a3d
000001e0: 020b 89bc 87af 85bd 08a4 05bd 1ff6 05bd
000001f0: 148e 533d a28d 353d dcb4 cabc fc93 0cbe
00000200: bde1 c2bc ba93 4cbd 0dd2 55bd 71df 14bd
00000210: 0838 05bd a95c 8f3c bbfc b33c ce75 07bf
00000220: 33e5 98be 9783 a7be 0348 b7be 6442 9abe
00000230: e937 c1be c052 b23d d87b 0f3e e88e 3f3c
00000240: 7c3f 1bbd aad0 dabc be00 083c 0671 e1bc
00000250: 071b 07bd 005e 283b 08a2 c23d b9b9 9c3d
00000260: 5597 263e 9d33 ccbe adb6 e0be f56b 0bbf
00000270: b941 e8be aeb2 d9be 1e4b 16bf 8e2f fbbe
00000280: 6fb6 03bf f7bb 07bf 5f6a e23d 00cb 973c
00000290: dbe3 023e 3cba 033e 988e 563c 5e52 e43d
000002a0: 43c7 e23d c660 053e 9a84 9a3d 58ee 2b3d
000002b0: 14c3 03bd ffb4 533d f94c 18bd 13e5 60bc
000002c0: 3bb5 79bc 4bbf c4bd 34fa 11bd bac0 e639
000002d0: 1d27 553d 5727 19bd 1232 f63c 8c31 203c
000002e0: 4d8c 363d 5697 813c 6da2 183d 809c 7cbc
000002f0: 93f3 6b3d be59 103c 39c3 b9bc add6 b4bd
00000300: a942 00be 60ed 00be 38a5 54bd 1f45 6fbe
00000310: e435 67be f624 73be 3f92 67be 9df1 2bbe
00000320: 67d8 acbe 9523 38bf 45e1 1abf 58d1 2abf
00000330: ed41 123f 9c93 103f 2002 163f aa8f 6e3d
00000340: ee3c 5b3c 0208 89bc 0bee 41bd 4693 873d
00000350: 0a6b 52bc acb8 00bd 6e28 8b3d d228 3e3c
00000360: 5675 7fbe 5778 a0be 18d9 63be 0015 f1bd
00000370: 4ca7 52be f8bc 05be 35c0 39be eec6 76be
00000380: 6947 eabd 6e2b a0bd a1e7 b9bc 6713 aabd
00000390: 98f1 1dbe 33a2 2cbd 4400 e8bd 2eaa 90bd
000003a0: ebf0 9dbd 480b babd 6bda bb3d 6d9f 2f3d
000003b0: 7454 e73a b4b1 ea3c 0ef3 623d ed9a 8a3d
000003c0: 07a7 5ebc be45 68bc e741 433c 3a8a b0bd
000003d0: bd32 5cbd 5c0d 99bd 1e4f 86bd 21f1 c7bd
000003e0: 4b85 0f3d b1eb 903d 5d1f 073d 8893 bb3d
000003f0: 44ac 11be f5c4 06be 7f73 d1bd 1d6d 2dbe
0.09321804 0.07407107 0.030306842 0.0079801 0.055409756 0.040766187 0.02446022 0.06594802
0.046893004 0.07649697 0.038775325 0.04752493 0.07186347 0.0048791566 0.056286436 0.1630977
0.12186409 0.14324789 0.034676213 0.008565052 0.05633494 0.06362297 0.034323353 -0.003128312
0.06668254 0.0015105621 0.06435598 0.0343718 0.001879794 -0.08846672 0.046543382 -0.008418875
-0.029993888 0.082058236 0.061119072 0.005011359 -0.20045765 -0.28128678 -0.1405521 -0.15091611
-0.2004391 -0.14841889 -0.07217362 -0.18889667 -0.063955545 -0.1781383 -0.1503833 -0.12626958
-0.112206355 -0.070723206 -0.108900756 -0.07217244 0.005018006 -0.013106049 0.10935535 0.07042854
0.08596911 0.06405092 0.03679475 0.030757342 0.12392773 0.16812205 0.08365902 -0.39496544
-0.54330707 -0.6840468 -0.5493867 -0.56761783 -0.53620005 -0.22711627 -0.15146603 -0.10757957
-0.073957816 -0.05615067 -0.065519385 -0.06391974 -0.123126626 -0.033623923 0.008033816 -0.018522315
0.08351693 0.03572875 -0.02311783 0.022895372 -0.004069785 0.057285428 0.0127291605 0.037253574
0.02104813 0.10802379 -0.025178423 0.0012971472 0.08516601 -0.012768208 -0.000304699 -0.015387991
0.103594705 0.12409645 0.039502148 0.056341354 -0.00664651 0.013806667 -0.014515387 -0.007264711
0.055636473 0.057910357 0.022588197 -0.01400549 0.0052957977 -0.09802071 -0.020331433 0.010489718
-0.012845876 -0.03052673 0.022273226 0.05373776 0.118211895 -0.09553567 -0.04848062 0.041743055
-0.016728882 -0.0652762 -0.032627136 -0.032705422 0.051649168 0.044324525 -0.024744444 -0.13728327
-0.023789281 -0.04994557 -0.052202273 -0.036345903 -0.03252414 0.017500238 0.021971097 -0.5291413
-0.29862365 -0.32717583 -0.35797128 -0.30128777 -0.3773797 0.087071896 0.14012086 0.011691786
-0.03790234 -0.026710827 0.008300958 -0.027519714 -0.03298476 0.0025690794 0.09503561 0.07652611
0.16268666 -0.39883128 -0.4388937 -0.54461604 -0.45362642 -0.42519134 -0.5870837 -0.4905972
-0.51450247 -0.53021187 0.11055445 0.018529415 0.12782232 0.12864012 0.01309552 0.11148523
0.110731624 0.13025197 0.07544823 0.04197535 -0.032168463 0.051686283 -0.03718278 -0.013726491
-0.015240963 -0.09606799 -0.035639003 0.0004401261 0.052039254 -0.037391033 0.030053172 0.009777438
0.044567395 0.015819233 0.037264276 -0.015418172 0.057605337 0.008810459 -0.022676097 -0.08830009
-0.12525429 -0.12590551 -0.051915377 -0.23366211 -0.22579151 -0.23744568 -0.22614382 -0.16791387
-0.33758852 -0.71929294 -0.60499984 -0.66725683 0.57131845 0.56475234 0.5859699 0.058242477
0.013381226 -0.016727451 -0.047346156 0.06619887 -0.012842903 -0.031426117 0.06794821 0.011606412
-0.24947104 -0.31341812 -0.22250783 -0.117715836 -0.20571631 -0.13060367 -0.18139727 -0.24099323
-0.11439402 -0.078207836 -0.022693457 -0.08304482 -0.15424192 -0.042146873 -0.11328176 -0.07063709
-0.07711967 -0.09084183 0.09172519 0.04287665 0.001764907 0.028649189 0.055407576 0.06767831
-0.013589627 -0.014176784 0.011917568 -0.086201146 -0.053759325 -0.07473251 -0.06558059 -0.097627886
0.035039227 0.070762046 0.032988895 0.09158999 -0.1422587 -0.1316107 -0.10227107 -0.16936155

conv_layers.3.bias f4 [64]
00000000: 9312 cc3e cf57 8abd 8443 b63d 511b 503e
00000010: b42f 40bd c09a 85bd 393c 15be f7c8 64bb
00000020: 582e 2dbd 03a3 3ebd 4f25 a2bc 6897 b1bd
00000030: fd6b 8d3d fe2e d8bd a6f4 9e3c bd30 b5bc
00000040: 3be9 b8bd 6fca bb3e ac93 1bbc 680d c8bd
00000050: 845a 6cbc edaf 083e 008d ce3e dafc 923e
00000060: 70a6 81bd 566d a8bd 49f5 f0bd 714d d3bd
00000070: f14e b6bd 3ddc c4bd 95f6 f63d 2c0c 8fbb
00000080: dbee aabd 1fa3 293d 491a 9f3d 315b 5f3e
00000090: 4940 b13b e3e3 d33d 6e0a ca3d d0d1 643e
000000a0: 2a37 a2bd 8699 003c 5a03 a2bd 9151 0bbe
000000b0: 59ee cd3e 1c5d 50be 514c 58be 8c29 aabd
000000c0: 7790 02bd 8f22 2cbd b4de 47bd 8c13 e03d
000000d0: bc24 7e3d ace2 09be b665 89bd e410 5fbe
000000e0: c317 69bd e7a4 2bbe 6015 06be daab 65bd
000000f0: dc06 383e c073 22be fa07 a0bd 95d8 86bd
0.3985792 -0.067550294 0.08899596 0.2032292 -0.046920493 -0.06523657 -0.14573754 -0.0034909823
-0.042280525 -0.04654218 -0.01979318 -0.086714566 0.06905363 -0.10555838 0.019403767 -0.022117967
-0.0902886 0.36677882 -0.009495657 -0.09768182 -0.0144258775 0.1334836 0.4034195 0.28708535
-0.063305736 -0.08223979 -0.117655344 -0.10317505 -0.08901776 -0.096123196 0.120587505 -0.0043654647
-0.08346339 0.04141533 0.07768685 0.2181213 0.0054092747 0.103462 0.098652706 0.22345662
-0.07920678 0.007849103 -0.079107955 -0.13605334 0.40220907 -0.20348018 -0.21122862 -0.08308706
-0.031876054 -0.042025145 -0.04879637 0.10941228 0.06204675 -0.13465375 -0.06708853 -0.21783787
-0.056907427 -0.16762124 -0.13094091 -0.056072094 0.17971367 -0.15864468 -0.078140214 -0.065842785

conv_layers.6.weight f4 [128, 64, 3, 3]
00000000: 5c70 8d3c 4c56 20bd 178f 51bd a3d1 6bbc
00000010: b1a8 2dbd 2f11 4dbd 2d04 26bd 69f6 d9bc
00000020: f609 ba3c 5c76 13bc 3002 04bb f800 f4bc
00000030: 7840 9cbb 0197 213d a07c 08bc f3dc fbbc
00000040: b895 813b 2880 f43b 7cf3 2bbc 02f9 2c3c
00000050: 552a aebc 0139 3e3c af14 7abd 068e 33bd
00000060: ef67 1ebd bcfd 46bd 6957 31bd d717 20bc
00000070: 1fbb 2e3c 7f16 10bd fe0c b33c 23c2 9e3c
00000080: b31d 0dbd 5b71 ebbc 4137 163c 51cb 783c
00000090: b05d 8fbc 9715 e5bc 2c9c 36bc 4895 0c3c
000000a0: 715d f0bc 9ddf f3bc 02ea f7bb a0bc 8dba
000000b0: b8ab 49bd 0eee 28bc 8bd5 58bd 1b39 65bc
000000c0: 437a b43c 77e7 08bd aec4 b03c 6793 1ebd
000000d0: 4505 77bd 5dde 483c 8e5a adbd 0288 9ebc
000000e0: 7249 08bc b840 6fbc 8e21 eabc e846 99bc
000000f0: 918f f2bb ea75 10bd bf9e 39bd b8a3 5fbc
00000100: 5ac6 67bd adf6 0dbd bba6 043b 6c72 203b
00000110: ce16 81bd 9705 3abd 2eaf 90bd 6fa6 51bd
00000120: bde8 30bd 9dfa aabc 1559 f4bc bf13 0abc
00000130: 076e 0c3c 9fab 083b 8cee fdbc 7018 98bc
00000140: a5e4 8bbd fa7d 693c eecc d33c 7007 98bb
00000150: 7436 39bd 5302 1dbc c7f3 0cbd 2bec febc
00000160: f970 57bd 4f20 e43c 7ccf 56bd 102c cb3c
00000170: 8438 d9bc c212 52bd c0f8 c23c e317 a9bc
00000180: b438 94bd ef15 6b3c 2c0a e8bc 9f89 d7bc
00000190: 68d9 37bc 9128 59bd bde4 45bd 7216 843c
000001a0: ec68 c5bc 07eb 3abd 29d6 4939 fd39 58bd
000001b0: 5602 3e3c ff6b f7bc 7c75 993c 607d a8bb
000001c0: 32fc 2abd 10b9 33bd 6b28 123d d1b9 a2bb
000001d0: 7c43 43bd 1807 0fbc 1a8f 0cbd 7a63 97bd
000001e0: 6d2a 23bd 7791 ebbc 31c1 76bd 420a 52bd
000001f0: a516 a2ba 1c3c 163c 39ab 9cba e621 5bbd
00000200: 43a2 8fbc f526 37bd 8adf e13a 288e 69bc
00000210: 254e 40bd a17d e63b 9ebb 0bbd 4d53 9cbc
00000220: e799 a2bc ff9c a43c 6fb4 ee3c 570f 2dbd
00000230: c506 9eba 919f 093d 4a0f ad3b d922 7abc
00000240: ccf1 9e3b 4b3d a1bd d905 e8bc e9cb 2ebd
00000250: 739c 30bc 8a58 80bd 2f5b 4bbd 83f2 eabc
00000260: 6369 85bd b206 35bc 8850 853c 3822 b93a
00000270: 8f53 2b3c a44c 69bd ea8e 40bc ce54 053d
00000280: 5712 39bd e5d5 bfbc 12a9 0dbc dbbb 4cbd
00000290: a99d 7cbd eb89 71bd d762 5bbd 0567 573c
000002a0: 80ae 80bd ad10 c23c 1527 4fbc d1b8 58bd
000002b0: 5de9 7bbd 40ee 603c bc79 52bd 0529 40bd
000002c0: f29f f2bb 2d24 a03b f50b 22bd c120 02bc
000002d0: 4ef9 d73c 2631 353c 7bd7 90bc 76fd 06bd
000002e0: 5c5a 8cbc 0cb5 223c 3da8 d63c 2b32 bcbb
000002f0: 9b40 bcbc 09f7 053b ad42 47bb dab7 003d
00000300: 010d 52bd 65f9 723c 830c c03c 4383 cb3c
00000310: 5686 6e3c fbd8 ccbc fb7d ad3c 0822 99ba
00000320: 5adb 9abc 5c08 9f3c 038f ef3c 4c32 d6bb
00000330: 7b91 f53c bfac 313b 35dd ba3c b3c9 3ebd
00000340: 2f8d 353c 11f5 77bb 8be0 c0bb 4d1b 1dbd
00000350: b899 00bc e69b c23c 4978 3cbd 1f35 5dbd
00000360: 094a 0dbd 1b17 36bd c281 2cbd b748 94bc
00000370: 9486 9d3b 3d0d 31bd 5ec0 8bbd 84c2 1cbd
00000380: 5e12 87bd 3a12 efbc d29b 17bd 81fe d2bc
00000390: 0e43 24bd 7204 aabc 2ad9 13bc b46a 93bc
000003a0: e2f0 843c 1998 a7bc 3679 47bc ba9c ecbc
000003b0: 0077 8bbc c0e3 52ba 9478 b03c 3647 a53c
000003c0: fa41 df3c 7fc7 c43c 48b1 9dbb c814 aebc
000003d0: b08a 0dbd 79b9 d0bc 4ba1 c3bc 6f48 76bd
000003e0: dea4 af3a 23d6 f5bc aedd a4bc 4f36 bc3c
000003f0: 16dd e3bc e9fc 153c b65c 84bd 5d8a 01bd
0.017265491 -0.0391448 -0.05116185 -0.014393243 -0.042397205 -0.050065216 -0.040531326 -0.026606755
0.022709828 -0.009000387 -0.0020142905 -0.029785618 -0.0047684275 0.03945065 -0.008330494 -0.030745005
0.0039546154 0.0074615665 -0.010495063 0.010557415 -0.02126042 0.0116102705 -0.06105488 -0.043836616
-0.038673338 -0.048581824 -0.04329625 -0.009771309 0.01066473 -0.035177704 0.021856781 0.019379681
-0.03445215 -0.028740576 0.009168447 0.015185193 -0.017500728 -0.027964396 -0.011145633 0.008580513
-0.029341431 -0.029769713 -0.0075657377 -0.0010813661 -0.04923603 -0.010310663 -0.052938025 -0.013990666
0.022030955 -0.033423867 0.02157816 -0.038714793 -0.06030776 0.012260047 -0.084645376 -0.019351963
-0.008318292 -0.0146028325 -0.028580453 -0.018710569 -0.0074023684 -0.0352687 -0.045317408 -0.013649873
-0.056585647 -0.034659076 0.002024098 0.0024482263 -0.06303178 -0.045415487 -0.07064663 -0.051184114
-0.043190707 -0.020871455 -0.029827634 -0.008427559 0.008571154 0.0020854247 -0.030997537 -0.01856634
-0.0683072 0.014251227 0.025854554 -0.0046395585 -0.045217946 -0.009583074 -0.03441217 -0.031118473
-0.052597973 0.027847437 -0.052443966 0.024801284 -0.026516207 -0.05128742 0.023800254 -0.020641273
-0.07237378 0.014348491 -0.028325163 -0.02631074 -0.011221267 -0.053017203 -0.048313845 0.016123984
-0.024097882 -0.045634296 0.00019248635 -0.052789677 0.011597237 -0.030202864 0.018732779 -0.005141899
-0.04174442 -0.04387766 0.035683077 -0.0049659987 -0.04767178 -0.008729719 -0.03431616 -0.073920205
-0.039835382 -0.028755886 -0.060242835 -0.051279314 -0.0012366368 0.009169605 -0.0011952884 -0.053499125
-0.017533427 -0.044714887 0.0017232758 -0.014255084 -0.046949524 0.007034019 -0.034114473 -0.01908269
-0.019848777 0.020094393 0.029138772 -0.042250957 -0.0012056461 0.03359944 0.0052813636 -0.015267097
0.004850602 -0.07873019 -0.0283231 -0.042674933 -0.010779488 -0.062668875 -0.049647506 -0.028680092
-0.065142415 -0.01104896 0.016273752 0.0014124578 0.010456934 -0.056957856 -0.011752823 0.03255158
-0.045183506 -0.023417423 -0.008646267 -0.04998384 -0.061673794 -0.05896942 -0.053561058 0.01314712
-0.06283283 0.023689592 -0.012643595 -0.05291063 -0.06150185 0.013728678 -0.051385626 -0.04691412
-0.007404321 0.004887125 -0.039562184 -0.007942379 0.026363995 0.011059081 -0.017680874 -0.032956563
-0.01713293 0.00993086 0.02620327 -0.005743285 -0.022980025 0.0020441434 -0.0030404732 0.031425335
-0.051281933 0.014829968 0.023443466 0.024842864 0.014558395 -0.025005808 0.021178236 -0.0011683116
-0.018903423 0.019413166 0.029242998 -0.0065367576 0.029976597 0.0027111021 0.022810558 -0.046579074
0.011081024 -0.003783528 -0.0058861426 -0.038356114 -0.007849149 0.023755979 -0.04601315 -0.05400574
-0.034494434 -0.04445563 -0.042115934 -0.01810108 0.0048073027 -0.043225516 -0.068238005 -0.038271442
-0.065953 -0.029183496 -0.037013836 -0.025756123 -0.04010301 -0.020754073 -0.009023944 -0.017995216
0.016228143 -0.020458268 -0.012174895 -0.028883327 -0.017024517 -0.00080448017 0.021541871 0.020175558
0.02725314 0.024020908 -0.0048123933 -0.021250144 -0.03455609 -0.025479065 -0.023880621 -0.06012767
0.0013400575 -0.030009335 -0.020125236 0.022975115 -0.027815383 0.009154537 -0.06462996 -0.031626094

conv_layers.6.bias f4 [128]
00000000: 9db8 c4bc 47e7 353e ef84 8cbd b023 9ebd
00000010: 13d9 3f3c 979a 5e3d 6334 cd3c 0d9e fdbb
00000020: 9e2b cb3e fdea 71bc b600 813c 6f76 6abd
00000030: 06a2 dfbb a148 cbbc 212b 91bc 98e1 38bc
00000040: 5e0c 46bd 2d15 5c3e b9f4 2abe f9b8 3abd
00000050: aee7 b9bd 59d7 5abe 9779 febd 8e32 383c
00000060: c0bb 27bd ceba 9c3c 528c 6f3d b96f 023e
00000070: 3625 4abd 9c71 6f3e f6bd 323e f4c6 e8bc
00000080: 56e0 41bd 6b83 073e def9 123d 7cbb 9fbd
00000090: 50f6 6fbd 354b 88bd f55c a7bc f0ea 87bb
000000a0: 37eb 933d 27b1 22bd 52e4 4dbd e4a9 253e
000000b0: d9f8 21bc becd d83d 13de cb3c 77d3 2bbd
000000c0: 0e47 183e f50d 8ebd 0eeb 5dbd 9854 95bc
000000d0: fc64 323e 1c3c b93b e20d 60bd 8310 7c3b
000000e0: e904 043e aa9d 35bd d5f8 bc3d 0daf 863c
000000f0: 6971 cdbd 7d21 babd 6620 0b3e e8cd 25bd
00000100: 308a 2ebe e0c5 83bc 6a6c 963c ca58 86bd
00000110: b67b 273e 765c c93c f023 61bc b527 33bd
00000120: da9d 033b 8274 bf3d fd73 47bd b11c c7bc
00000130: b8ea 1b3e b3bc 2bbd e35a fcbc 28cc 023e
00000140: 94fa 61bd 3052 5bbd cd20 89bd 902b 33bd
00000150: 42e7 4c3e 34ad 2fbd d1a0 e83b a08c 8a3e
00000160: 5678 2cbd 1e6a 84bd 7c57 50bd 7b81 4ebe
00000170: 35b0 b5bc 147c 18be f711 36bd 0a8e 1bbd
00000180: 6c2b 45bd cbd0 243e a6f6 fabc 7844 5abd
00000190: dcd6 23be 96da 8ebd 3453 5cbd 70f4 ccbd
000001a0: cb89 83bc 7039 06bd cbb1 843e 0887 893e
000001b0: e68f c23c 05f6 a5bc 659f 383d ace1 013e
000001c0: f15f 863c 7825 2c3c d8c9 b93d 83c5 3abd
000001d0: f707 53bd d916 2fbb 2d95 44bd 4ca8 d0bc
000001e0: e8e9 033c df80 1ebe 3132 133e 67fb d2bd
000001f0: 4fb6 163c 9a0e ebbc a5af d3bc 6e8e 65bd
-0.024013812 0.17764007 -0.068612926 -0.077216506 0.011709469 0.054346647 0.025049394 -0.0077397884
0.39681715 -0.014765498 0.01574741 -0.057241853 -0.0068247346 -0.024814906 -0.01772076 -0.0112842545
-0.048351638 0.21492453 -0.16694917 -0.04558656 -0.090773925 -0.21371211 -0.12425535 0.011242522
-0.040950537 0.019132044 0.05848343 0.12737931 -0.049351893 0.23383182 0.17455277 -0.02841518
-0.047333084 0.13233726 0.035882823 -0.07799432 -0.05858451 -0.066549696 -0.020430068 -0.00414788
0.07222598 -0.039719727 -0.05026657 0.1617809 -0.00988599 0.10586117 0.024886167 -0.041949715
0.14870855 -0.06936256 -0.054179244 -0.018228814 0.17421335 0.0056529175 -0.05470074 0.003846199
0.12892498 -0.044339813 0.092271484 0.016440893 -0.10031397 -0.09088419 0.13586578 -0.04047957
-0.17044902 -0.016085565 0.018362243 -0.06559904 0.16355786 0.024580222 -0.013741478 -0.04373904
0.00200831 0.09348394 -0.0486946 -0.024305673 0.15226257 -0.041928004 -0.030805057 0.12773192
-0.05517061 -0.053545177 -0.066957094 -0.043742716 0.20010093 -0.04288979 0.007099249 0.27060413
-0.04210695 -0.06465553 -0.05086468 -0.2016658 -0.022178749 -0.14891082 -0.044450726 -0.037977256
-0.048137113 0.16095273 -0.03063519 -0.053287953 -0.15999931 -0.06975286 -0.053790286 -0.1000756
-0.016056916 -0.03276962 0.25916895 0.26860833 0.023750257 -0.020258913 0.045073885 0.12683743
0.01640317 0.01050698 0.09071702 -0.045598518 -0.051521268 -0.00267165 -0.047993828 -0.025470875
0.008051373 -0.15478848 0.14374615 -0.103018574 0.009198739 -0.028693486 -0.02584059 -0.056044035

classifier.weight f4 [14, 128]
00000000: 48e3 8abc f98d 823e 9103 143d 7080 57bd
00000010: 7b87 c63d c427 eb3d 526f 05bd 94e1 863d
00000020: a22e 90be 2a7d b13b e949 c93c bffd 5cbe
00000030: a709 283a eda6 b4bd 8707 ab3d 2989 643c
00000040: ecda b9bb f251 883e 27a0 24be 85fd a9bd
00000050: 44a5 63bc 962d c5be b4ff a23b 7c6b 24bd
00000060: f498 4fbd 6d4b 4bbe 6118 87be bd8d 903d
00000070: 1b79 3bbd cdec afbe 2ed3 a93d 0d69 31bd
00000080: 0712 903d 2e28 a7be 2946 26bd 452b 4b3d
00000090: e962 193d 89f0 b6bd 904b 963d 7f7e 00bd
000000a0: cec8 e2bc cbd9 bfbc 4229 693d bc93 e93d
000000b0: d771 78bd 5f95 db3e 144f afbd 9266 ae3d
000000c0: e5e1 8c3d 1156 5dbe 4dee 93bd 8a27 7cbd
000000d0: 9a7c 00bd 4ccd e8bc a0d3 e7bd b2cf c7bc
000000e0: ca94 063e 0a20 e4bd 33b9 52be ade7 39bc
000000f0: c5ba 00be c960 fb3c c9f4 973e e39b 04bd
00000100: 0e29 b9be 4279 f23c 81ae d2be b792 5fbd
00000110: 9ec8 8bbd fbef d4bd 869b 433d 6862 a9bb
00000120: c771 843d 5190 fe3d ebb1 e03c 18b8 00bd
00000130: 6e74 3c3e 8849 ac3b 994f 94bd e145 51be
00000140: 9cef 8cbc 005c 2f3d f74c 893c 3f57 10bb
00000150: 6a6c 3f3e c550 973d a821 403d be23 353e
00000160: 20a0 55bd c274 aebc c3be 1dbd 7ed8 cebe
00000170: 6370 efbc 521d b23e 5af2 6f3d 9297 b6bb
00000180: a221 e4bd 1d14 b83e 7a50 a0bd d478 4e3c
00000190: c308 39be e0c2 823d 2c44 c53d 2298 0dbe
000001a0: 78dd d63b b673 11bd abc7 9d3d be2d 943e
000001b0: fca9 23bd 2730 73bd 5d85 7e3d f0bb a1be
000001c0: e344 19be 0aa5 09be 950b 173e cc56 edbc
000001d0: 4ab6 4ebe c623 a2be ef36 4abe fc6f a9bd
000001e0: 9bf3 033d b6a0 f53d da13 ed3d d99d d3bc
000001f0: 99d2 dcbc 5902 a13c 044c 9fbc 3d6f 8ebd
00000200: 6d12 a6bc 7dad 1cbe 5390 19bd 5bd8 d9bc
00000210: 49b0 66bd 357e 85be 0607 383d 7603 fb3b
00000220: a3aa aebe 5eb1 adbd 1e9e 8bbe f2d4 683e
00000230: d988 123d 31aa 90bd 33e7 60be fb9c fabc
00000240: 296b 373d dbd7 97be 9a5d 35be d07f d43c
00000250: 4e66 73bc 6e19 8d3d aa12 303e ada8 bbbd
00000260: 956d 30bd c7d3 2fbe 55f2 93be 1366 cf3d
00000270: 95a2 4cbd 4360 4ebc e5e9 f9bd 9e12 213d
00000280: 3c05 8e3e f9b1 b73e 74b2 99be cab7 513e
00000290: 5f00 82bd 84ae 97bd 49de 37bd 2e84 3fbd
000002a0: acc5 4dbe 68d4 a73d 3a37 2abd 7e4f 3dbe
000002b0: 723e 1dbc f35b 873e a57a d3bd a51d 5aba
000002c0: c9ff 2cbe 19f2 3abe d2e0 053c 9386 d2bc
000002d0: ea84 2a3e d388 c4bd fd7e eb39 77de 303b
000002e0: f85d 743e cec0 02bd 2645 a53d dd07 c4bc
000002f0: 64aa 3cbd bc65 783c 1f18 e33c 2610 28bd
00000300: a7da b2bc 17b5 a43c 3283 18bd 5154 0fbe
00000310: 996e 64bc 7b3f 23be dc41 afbe 0319 c2bc
00000320: 580c 533d 852e 6bbe 8b24 90bc 67ed 733d
00000330: 7bfb 433e 4602 823d 5ef9 15be 1d1f 863e
00000340: 3467 333c 3d32 433b 242a ab3d 09e0 3f3d
00000350: cb4e c53c 62b1 03be a535 c2bd af71 95bd
00000360: f7ea 03be e897 393d 6afd 21be 2526 103e
00000370: 54c5 53bd f431 a0be 0603 afbd 1458 e53d
00000380: 198b b5bc 056d 2e3d 54d3 2ebc cf68 403c
00000390: e8eb abbe 6a08 173c 04f3 01be 694e 7b3d
000003a0: e89a 1e3d 95dc 60bd 25de 2bbe 7a4d 59be
000003b0: b0ea a3bd b09b 42bd 8b79 45be 5cbc 683d
000003c0: 40dc 283e 7cc1 2fbe bbca a7bd 4a5a d83c
000003d0: a733 6dbe d2de 023e 1731 3a3e e27e 89bd
000003e0: 9ad3 9cbe 896c 7e3d 6921 a23d f7a4 c1bd
000003f0: e5e0 b5bd 1dd0 893e cf6c 77bd 6623 bcbd
-0.01695408 0.25498942 0.036136214 -0.052612722 0.096938096 0.11482194 -0.032576866 0.06585994
-0.28160578 0.005416532 0.024571376 -0.21581171 0.000641013 -0.08820901 0.08351045 0.013948717
-0.0056718495 0.2662502 -0.16076718 -0.08300308 -0.013894383 -0.38511342 0.00497433 -0.040141568
-0.050682977 -0.19852991 -0.26385787 0.070582844 -0.045769792 -0.34360352 0.082922325 -0.043313075
0.070346884 -0.32647842 -0.040594254 0.049601812 0.037447844 -0.08932597 0.07338631 -0.031370636
-0.027683642 -0.023419281 0.056924112 0.11405131 -0.06065544 0.428874 -0.08560005 0.085156575
0.068790235 -0.21614863 -0.07223187 -0.061561145 -0.03136883 -0.028418206 -0.11319661 -0.024391029
0.13142696 -0.111389235 -0.2057846 -0.01134674 -0.12571247 0.0306858 0.29678944 -0.032375228
-0.36164135 0.029598836 -0.4114876 -0.054583278 -0.06825374 -0.10397335 0.04775574 -0.0051692016
0.06467014 0.1242987 0.027428588 -0.031425565 0.1840379 0.005257789 -0.072417445 -0.20436813
-0.017204098 0.042812347 0.016760333 -0.002202466 0.186937 0.073884524 0.046907097 0.17689416
-0.05215466 -0.021295909 -0.038512003 -0.40399545 -0.029228395 0.34787995 0.058580734 -0.005572268
-0.111392274 0.35952845 -0.0782785 0.01260205 -0.18069749 0.06384826 0.096321434 -0.13827565
0.006557163 -0.03551074 0.07704099 0.2894115 -0.03995703 -0.059372094 0.062138904 -0.31588697
-0.14967684 -0.13441864 0.14750512 -0.028972052 -0.20186725 -0.31667918 -0.19747518 -0.082733124
0.032214742 0.11993544 0.11576052 -0.025832104 -0.02695589 0.01965444 -0.019445427 -0.06954811
-0.020272458 -0.15300556 -0.037491154 -0.026592424 -0.056320462 -0.2607285 0.044928573 0.0076603247
-0.3411456 -0.08481096 -0.2726907 0.22737482 0.03577504 -0.070637114 -0.21963196 -0.030592432
0.04477993 -0.29656872 -0.17711487 0.025939852 -0.014855934 0.06889616 0.1719462 -0.09163032
-0.043073256 -0.1717063 -0.28895822 0.10126891 -0.049959738 -0.012596193 -0.12202815 0.039324395
0.2773837 0.3587797 -0.3001896 0.20480266 -0.06347727 -0.07406333 -0.044889722 -0.046756916
-0.20094937 0.0819481 -0.041556574 -0.18487355 -0.009597408 0.2643734 -0.10326127 -0.00083204574
-0.1689445 -0.18256415 0.008171277 -0.025698936 0.16652265 -0.0959641 0.00044917307 0.0026988068
0.23863971 -0.031922154 0.0806983 -0.02392953 -0.046060935 0.015160974 0.027721463 -0.041031025
-0.021832777 0.020105882 -0.037234493 -0.13997008 -0.013942384 -0.15942185 -0.34229934 -0.023693567
0.051525444 -0.22966965 -0.01759555 0.059552576 0.19138901 0.0634809 -0.14645907 0.26195613
0.0109498985 0.0029784583 0.08357647 0.046844516 0.024085423 -0.12860635 -0.09482888 -0.07297074
-0.128826 0.045310885 -0.15819326 0.14077051 -0.05170186 -0.3128811 -0.085454985 0.1119844
-0.022161053 0.042584438 -0.010670502 0.011743738 -0.3357842 0.009218315 -0.1269036 0.061354075
0.03872195 -0.054897863 -0.1678396 -0.21220961 -0.080037475 -0.047511756 -0.19284646 0.05682026
0.16490269 -0.17163652 -0.08192965 0.02641024 -0.23164235 0.12780312 0.18182789 -0.06713654
-0.3063019 0.062115226 0.07916529 -0.09455293 -0.08880786 0.2691659 -0.060406502 -0.09186439

classifier.bias f4 [14]
00000000: be23 e1bd e0c3 563d 46e2 1e3e 3e4e 2a3e
00000010: 55c1 88bc 9a15 0bbe 3285 8f3d 5b61 45bd
00000020: dd6a cebc 1c5c 05bd 110a 74be 31d0 b9bd
00000030: cc2b b53d 2b13 833d
-0.109931454 0.052432895 0.15516004 0.1663141 -0.01669375 -0.13582459 0.07007827 -0.04818855
-0.02519744 -0.032558545 -0.23831965 -0.090729125 0.08846244 0.064001404
